<?xml version="1.0" ?>
<net batch="1" name="ssd" version="6">
	<layers>
		<layer id="0" name="image" precision="FP32" type="Input">
			<output>
				<port id="0">
					<dim>1</dim>
					<dim>3</dim>
					<dim>1200</dim>
					<dim>1200</dim>
				</port>
			</output>
		</layer>
		<layer id="1" name="Conv_219" precision="FP32" type="Convolution">
			<data dilations="1,1" group="1" kernel="7,7" output="64" pads_begin="3,3" pads_end="3,3" strides="2,2"/>
			<input>
				<port id="0">
					<dim>1</dim>
					<dim>3</dim>
					<dim>1200</dim>
					<dim>1200</dim>
				</port>
			</input>
			<output>
				<port id="3">
					<dim>1</dim>
					<dim>64</dim>
					<dim>600</dim>
					<dim>600</dim>
				</port>
			</output>
			<blobs>
				<weights offset="0" size="37632"/>
				<biases offset="37632" size="256"/>
			</blobs>
		</layer>
		<layer id="2" name="Relu_221" precision="FP32" type="ReLU">
			<input>
				<port id="0">
					<dim>1</dim>
					<dim>64</dim>
					<dim>600</dim>
					<dim>600</dim>
				</port>
			</input>
			<output>
				<port id="1">
					<dim>1</dim>
					<dim>64</dim>
					<dim>600</dim>
					<dim>600</dim>
				</port>
			</output>
		</layer>
		<layer id="3" name="MaxPool_222" precision="FP32" type="Pooling">
			<data exclude-pad="true" kernel="3,3" pads_begin="1,1" pads_end="1,1" pool-method="max" rounding_type="floor" strides="2,2"/>
			<input>
				<port id="0">
					<dim>1</dim>
					<dim>64</dim>
					<dim>600</dim>
					<dim>600</dim>
				</port>
			</input>
			<output>
				<port id="1">
					<dim>1</dim>
					<dim>64</dim>
					<dim>300</dim>
					<dim>300</dim>
				</port>
			</output>
		</layer>
		<layer id="4" name="Conv_223" precision="FP32" type="Convolution">
			<data dilations="1,1" group="1" kernel="3,3" output="64" pads_begin="1,1" pads_end="1,1" strides="1,1"/>
			<input>
				<port id="0">
					<dim>1</dim>
					<dim>64</dim>
					<dim>300</dim>
					<dim>300</dim>
				</port>
			</input>
			<output>
				<port id="3">
					<dim>1</dim>
					<dim>64</dim>
					<dim>300</dim>
					<dim>300</dim>
				</port>
			</output>
			<blobs>
				<weights offset="37888" size="147456"/>
				<biases offset="185344" size="256"/>
			</blobs>
		</layer>
		<layer id="5" name="Relu_225" precision="FP32" type="ReLU">
			<input>
				<port id="0">
					<dim>1</dim>
					<dim>64</dim>
					<dim>300</dim>
					<dim>300</dim>
				</port>
			</input>
			<output>
				<port id="1">
					<dim>1</dim>
					<dim>64</dim>
					<dim>300</dim>
					<dim>300</dim>
				</port>
			</output>
		</layer>
		<layer id="6" name="Conv_226" precision="FP32" type="Convolution">
			<data dilations="1,1" group="1" kernel="3,3" output="64" pads_begin="1,1" pads_end="1,1" strides="1,1"/>
			<input>
				<port id="0">
					<dim>1</dim>
					<dim>64</dim>
					<dim>300</dim>
					<dim>300</dim>
				</port>
			</input>
			<output>
				<port id="3">
					<dim>1</dim>
					<dim>64</dim>
					<dim>300</dim>
					<dim>300</dim>
				</port>
			</output>
			<blobs>
				<weights offset="185600" size="147456"/>
				<biases offset="333056" size="256"/>
			</blobs>
		</layer>
		<layer id="7" name="Add_228" precision="FP32" type="Eltwise">
			<data operation="sum"/>
			<input>
				<port id="0">
					<dim>1</dim>
					<dim>64</dim>
					<dim>300</dim>
					<dim>300</dim>
				</port>
				<port id="1">
					<dim>1</dim>
					<dim>64</dim>
					<dim>300</dim>
					<dim>300</dim>
				</port>
			</input>
			<output>
				<port id="2">
					<dim>1</dim>
					<dim>64</dim>
					<dim>300</dim>
					<dim>300</dim>
				</port>
			</output>
		</layer>
		<layer id="8" name="Relu_229" precision="FP32" type="ReLU">
			<input>
				<port id="0">
					<dim>1</dim>
					<dim>64</dim>
					<dim>300</dim>
					<dim>300</dim>
				</port>
			</input>
			<output>
				<port id="1">
					<dim>1</dim>
					<dim>64</dim>
					<dim>300</dim>
					<dim>300</dim>
				</port>
			</output>
		</layer>
		<layer id="9" name="Conv_230" precision="FP32" type="Convolution">
			<data dilations="1,1" group="1" kernel="3,3" output="64" pads_begin="1,1" pads_end="1,1" strides="1,1"/>
			<input>
				<port id="0">
					<dim>1</dim>
					<dim>64</dim>
					<dim>300</dim>
					<dim>300</dim>
				</port>
			</input>
			<output>
				<port id="3">
					<dim>1</dim>
					<dim>64</dim>
					<dim>300</dim>
					<dim>300</dim>
				</port>
			</output>
			<blobs>
				<weights offset="333312" size="147456"/>
				<biases offset="480768" size="256"/>
			</blobs>
		</layer>
		<layer id="10" name="Relu_232" precision="FP32" type="ReLU">
			<input>
				<port id="0">
					<dim>1</dim>
					<dim>64</dim>
					<dim>300</dim>
					<dim>300</dim>
				</port>
			</input>
			<output>
				<port id="1">
					<dim>1</dim>
					<dim>64</dim>
					<dim>300</dim>
					<dim>300</dim>
				</port>
			</output>
		</layer>
		<layer id="11" name="Conv_233" precision="FP32" type="Convolution">
			<data dilations="1,1" group="1" kernel="3,3" output="64" pads_begin="1,1" pads_end="1,1" strides="1,1"/>
			<input>
				<port id="0">
					<dim>1</dim>
					<dim>64</dim>
					<dim>300</dim>
					<dim>300</dim>
				</port>
			</input>
			<output>
				<port id="3">
					<dim>1</dim>
					<dim>64</dim>
					<dim>300</dim>
					<dim>300</dim>
				</port>
			</output>
			<blobs>
				<weights offset="481024" size="147456"/>
				<biases offset="628480" size="256"/>
			</blobs>
		</layer>
		<layer id="12" name="Add_235" precision="FP32" type="Eltwise">
			<data operation="sum"/>
			<input>
				<port id="0">
					<dim>1</dim>
					<dim>64</dim>
					<dim>300</dim>
					<dim>300</dim>
				</port>
				<port id="1">
					<dim>1</dim>
					<dim>64</dim>
					<dim>300</dim>
					<dim>300</dim>
				</port>
			</input>
			<output>
				<port id="2">
					<dim>1</dim>
					<dim>64</dim>
					<dim>300</dim>
					<dim>300</dim>
				</port>
			</output>
		</layer>
		<layer id="13" name="Relu_236" precision="FP32" type="ReLU">
			<input>
				<port id="0">
					<dim>1</dim>
					<dim>64</dim>
					<dim>300</dim>
					<dim>300</dim>
				</port>
			</input>
			<output>
				<port id="1">
					<dim>1</dim>
					<dim>64</dim>
					<dim>300</dim>
					<dim>300</dim>
				</port>
			</output>
		</layer>
		<layer id="14" name="Conv_237" precision="FP32" type="Convolution">
			<data dilations="1,1" group="1" kernel="3,3" output="64" pads_begin="1,1" pads_end="1,1" strides="1,1"/>
			<input>
				<port id="0">
					<dim>1</dim>
					<dim>64</dim>
					<dim>300</dim>
					<dim>300</dim>
				</port>
			</input>
			<output>
				<port id="3">
					<dim>1</dim>
					<dim>64</dim>
					<dim>300</dim>
					<dim>300</dim>
				</port>
			</output>
			<blobs>
				<weights offset="628736" size="147456"/>
				<biases offset="776192" size="256"/>
			</blobs>
		</layer>
		<layer id="15" name="Relu_239" precision="FP32" type="ReLU">
			<input>
				<port id="0">
					<dim>1</dim>
					<dim>64</dim>
					<dim>300</dim>
					<dim>300</dim>
				</port>
			</input>
			<output>
				<port id="1">
					<dim>1</dim>
					<dim>64</dim>
					<dim>300</dim>
					<dim>300</dim>
				</port>
			</output>
		</layer>
		<layer id="16" name="Conv_240" precision="FP32" type="Convolution">
			<data dilations="1,1" group="1" kernel="3,3" output="64" pads_begin="1,1" pads_end="1,1" strides="1,1"/>
			<input>
				<port id="0">
					<dim>1</dim>
					<dim>64</dim>
					<dim>300</dim>
					<dim>300</dim>
				</port>
			</input>
			<output>
				<port id="3">
					<dim>1</dim>
					<dim>64</dim>
					<dim>300</dim>
					<dim>300</dim>
				</port>
			</output>
			<blobs>
				<weights offset="776448" size="147456"/>
				<biases offset="923904" size="256"/>
			</blobs>
		</layer>
		<layer id="17" name="Add_242" precision="FP32" type="Eltwise">
			<data operation="sum"/>
			<input>
				<port id="0">
					<dim>1</dim>
					<dim>64</dim>
					<dim>300</dim>
					<dim>300</dim>
				</port>
				<port id="1">
					<dim>1</dim>
					<dim>64</dim>
					<dim>300</dim>
					<dim>300</dim>
				</port>
			</input>
			<output>
				<port id="2">
					<dim>1</dim>
					<dim>64</dim>
					<dim>300</dim>
					<dim>300</dim>
				</port>
			</output>
		</layer>
		<layer id="18" name="Relu_243" precision="FP32" type="ReLU">
			<input>
				<port id="0">
					<dim>1</dim>
					<dim>64</dim>
					<dim>300</dim>
					<dim>300</dim>
				</port>
			</input>
			<output>
				<port id="1">
					<dim>1</dim>
					<dim>64</dim>
					<dim>300</dim>
					<dim>300</dim>
				</port>
			</output>
		</layer>
		<layer id="19" name="Conv_244" precision="FP32" type="Convolution">
			<data dilations="1,1" group="1" kernel="3,3" output="128" pads_begin="1,1" pads_end="1,1" strides="2,2"/>
			<input>
				<port id="0">
					<dim>1</dim>
					<dim>64</dim>
					<dim>300</dim>
					<dim>300</dim>
				</port>
			</input>
			<output>
				<port id="3">
					<dim>1</dim>
					<dim>128</dim>
					<dim>150</dim>
					<dim>150</dim>
				</port>
			</output>
			<blobs>
				<weights offset="924160" size="294912"/>
				<biases offset="1219072" size="512"/>
			</blobs>
		</layer>
		<layer id="20" name="Relu_246" precision="FP32" type="ReLU">
			<input>
				<port id="0">
					<dim>1</dim>
					<dim>128</dim>
					<dim>150</dim>
					<dim>150</dim>
				</port>
			</input>
			<output>
				<port id="1">
					<dim>1</dim>
					<dim>128</dim>
					<dim>150</dim>
					<dim>150</dim>
				</port>
			</output>
		</layer>
		<layer id="21" name="Conv_247" precision="FP32" type="Convolution">
			<data dilations="1,1" group="1" kernel="3,3" output="128" pads_begin="1,1" pads_end="1,1" strides="1,1"/>
			<input>
				<port id="0">
					<dim>1</dim>
					<dim>128</dim>
					<dim>150</dim>
					<dim>150</dim>
				</port>
			</input>
			<output>
				<port id="3">
					<dim>1</dim>
					<dim>128</dim>
					<dim>150</dim>
					<dim>150</dim>
				</port>
			</output>
			<blobs>
				<weights offset="1219584" size="589824"/>
				<biases offset="1809408" size="512"/>
			</blobs>
		</layer>
		<layer id="22" name="Conv_249" precision="FP32" type="Convolution">
			<data dilations="1,1" group="1" kernel="1,1" output="128" pads_begin="0,0" pads_end="0,0" strides="2,2"/>
			<input>
				<port id="0">
					<dim>1</dim>
					<dim>64</dim>
					<dim>300</dim>
					<dim>300</dim>
				</port>
			</input>
			<output>
				<port id="3">
					<dim>1</dim>
					<dim>128</dim>
					<dim>150</dim>
					<dim>150</dim>
				</port>
			</output>
			<blobs>
				<weights offset="1809920" size="32768"/>
				<biases offset="1842688" size="512"/>
			</blobs>
		</layer>
		<layer id="23" name="Add_251" precision="FP32" type="Eltwise">
			<data operation="sum"/>
			<input>
				<port id="0">
					<dim>1</dim>
					<dim>128</dim>
					<dim>150</dim>
					<dim>150</dim>
				</port>
				<port id="1">
					<dim>1</dim>
					<dim>128</dim>
					<dim>150</dim>
					<dim>150</dim>
				</port>
			</input>
			<output>
				<port id="2">
					<dim>1</dim>
					<dim>128</dim>
					<dim>150</dim>
					<dim>150</dim>
				</port>
			</output>
		</layer>
		<layer id="24" name="Relu_252" precision="FP32" type="ReLU">
			<input>
				<port id="0">
					<dim>1</dim>
					<dim>128</dim>
					<dim>150</dim>
					<dim>150</dim>
				</port>
			</input>
			<output>
				<port id="1">
					<dim>1</dim>
					<dim>128</dim>
					<dim>150</dim>
					<dim>150</dim>
				</port>
			</output>
		</layer>
		<layer id="25" name="Conv_253" precision="FP32" type="Convolution">
			<data dilations="1,1" group="1" kernel="3,3" output="128" pads_begin="1,1" pads_end="1,1" strides="1,1"/>
			<input>
				<port id="0">
					<dim>1</dim>
					<dim>128</dim>
					<dim>150</dim>
					<dim>150</dim>
				</port>
			</input>
			<output>
				<port id="3">
					<dim>1</dim>
					<dim>128</dim>
					<dim>150</dim>
					<dim>150</dim>
				</port>
			</output>
			<blobs>
				<weights offset="1843200" size="589824"/>
				<biases offset="2433024" size="512"/>
			</blobs>
		</layer>
		<layer id="26" name="Relu_255" precision="FP32" type="ReLU">
			<input>
				<port id="0">
					<dim>1</dim>
					<dim>128</dim>
					<dim>150</dim>
					<dim>150</dim>
				</port>
			</input>
			<output>
				<port id="1">
					<dim>1</dim>
					<dim>128</dim>
					<dim>150</dim>
					<dim>150</dim>
				</port>
			</output>
		</layer>
		<layer id="27" name="Conv_256" precision="FP32" type="Convolution">
			<data dilations="1,1" group="1" kernel="3,3" output="128" pads_begin="1,1" pads_end="1,1" strides="1,1"/>
			<input>
				<port id="0">
					<dim>1</dim>
					<dim>128</dim>
					<dim>150</dim>
					<dim>150</dim>
				</port>
			</input>
			<output>
				<port id="3">
					<dim>1</dim>
					<dim>128</dim>
					<dim>150</dim>
					<dim>150</dim>
				</port>
			</output>
			<blobs>
				<weights offset="2433536" size="589824"/>
				<biases offset="3023360" size="512"/>
			</blobs>
		</layer>
		<layer id="28" name="Add_258" precision="FP32" type="Eltwise">
			<data operation="sum"/>
			<input>
				<port id="0">
					<dim>1</dim>
					<dim>128</dim>
					<dim>150</dim>
					<dim>150</dim>
				</port>
				<port id="1">
					<dim>1</dim>
					<dim>128</dim>
					<dim>150</dim>
					<dim>150</dim>
				</port>
			</input>
			<output>
				<port id="2">
					<dim>1</dim>
					<dim>128</dim>
					<dim>150</dim>
					<dim>150</dim>
				</port>
			</output>
		</layer>
		<layer id="29" name="Relu_259" precision="FP32" type="ReLU">
			<input>
				<port id="0">
					<dim>1</dim>
					<dim>128</dim>
					<dim>150</dim>
					<dim>150</dim>
				</port>
			</input>
			<output>
				<port id="1">
					<dim>1</dim>
					<dim>128</dim>
					<dim>150</dim>
					<dim>150</dim>
				</port>
			</output>
		</layer>
		<layer id="30" name="Conv_260" precision="FP32" type="Convolution">
			<data dilations="1,1" group="1" kernel="3,3" output="128" pads_begin="1,1" pads_end="1,1" strides="1,1"/>
			<input>
				<port id="0">
					<dim>1</dim>
					<dim>128</dim>
					<dim>150</dim>
					<dim>150</dim>
				</port>
			</input>
			<output>
				<port id="3">
					<dim>1</dim>
					<dim>128</dim>
					<dim>150</dim>
					<dim>150</dim>
				</port>
			</output>
			<blobs>
				<weights offset="3023872" size="589824"/>
				<biases offset="3613696" size="512"/>
			</blobs>
		</layer>
		<layer id="31" name="Relu_262" precision="FP32" type="ReLU">
			<input>
				<port id="0">
					<dim>1</dim>
					<dim>128</dim>
					<dim>150</dim>
					<dim>150</dim>
				</port>
			</input>
			<output>
				<port id="1">
					<dim>1</dim>
					<dim>128</dim>
					<dim>150</dim>
					<dim>150</dim>
				</port>
			</output>
		</layer>
		<layer id="32" name="Conv_263" precision="FP32" type="Convolution">
			<data dilations="1,1" group="1" kernel="3,3" output="128" pads_begin="1,1" pads_end="1,1" strides="1,1"/>
			<input>
				<port id="0">
					<dim>1</dim>
					<dim>128</dim>
					<dim>150</dim>
					<dim>150</dim>
				</port>
			</input>
			<output>
				<port id="3">
					<dim>1</dim>
					<dim>128</dim>
					<dim>150</dim>
					<dim>150</dim>
				</port>
			</output>
			<blobs>
				<weights offset="3614208" size="589824"/>
				<biases offset="4204032" size="512"/>
			</blobs>
		</layer>
		<layer id="33" name="Add_265" precision="FP32" type="Eltwise">
			<data operation="sum"/>
			<input>
				<port id="0">
					<dim>1</dim>
					<dim>128</dim>
					<dim>150</dim>
					<dim>150</dim>
				</port>
				<port id="1">
					<dim>1</dim>
					<dim>128</dim>
					<dim>150</dim>
					<dim>150</dim>
				</port>
			</input>
			<output>
				<port id="2">
					<dim>1</dim>
					<dim>128</dim>
					<dim>150</dim>
					<dim>150</dim>
				</port>
			</output>
		</layer>
		<layer id="34" name="Relu_266" precision="FP32" type="ReLU">
			<input>
				<port id="0">
					<dim>1</dim>
					<dim>128</dim>
					<dim>150</dim>
					<dim>150</dim>
				</port>
			</input>
			<output>
				<port id="1">
					<dim>1</dim>
					<dim>128</dim>
					<dim>150</dim>
					<dim>150</dim>
				</port>
			</output>
		</layer>
		<layer id="35" name="Conv_267" precision="FP32" type="Convolution">
			<data dilations="1,1" group="1" kernel="3,3" output="128" pads_begin="1,1" pads_end="1,1" strides="1,1"/>
			<input>
				<port id="0">
					<dim>1</dim>
					<dim>128</dim>
					<dim>150</dim>
					<dim>150</dim>
				</port>
			</input>
			<output>
				<port id="3">
					<dim>1</dim>
					<dim>128</dim>
					<dim>150</dim>
					<dim>150</dim>
				</port>
			</output>
			<blobs>
				<weights offset="4204544" size="589824"/>
				<biases offset="4794368" size="512"/>
			</blobs>
		</layer>
		<layer id="36" name="Relu_269" precision="FP32" type="ReLU">
			<input>
				<port id="0">
					<dim>1</dim>
					<dim>128</dim>
					<dim>150</dim>
					<dim>150</dim>
				</port>
			</input>
			<output>
				<port id="1">
					<dim>1</dim>
					<dim>128</dim>
					<dim>150</dim>
					<dim>150</dim>
				</port>
			</output>
		</layer>
		<layer id="37" name="Conv_270" precision="FP32" type="Convolution">
			<data dilations="1,1" group="1" kernel="3,3" output="128" pads_begin="1,1" pads_end="1,1" strides="1,1"/>
			<input>
				<port id="0">
					<dim>1</dim>
					<dim>128</dim>
					<dim>150</dim>
					<dim>150</dim>
				</port>
			</input>
			<output>
				<port id="3">
					<dim>1</dim>
					<dim>128</dim>
					<dim>150</dim>
					<dim>150</dim>
				</port>
			</output>
			<blobs>
				<weights offset="4794880" size="589824"/>
				<biases offset="5384704" size="512"/>
			</blobs>
		</layer>
		<layer id="38" name="Add_272" precision="FP32" type="Eltwise">
			<data operation="sum"/>
			<input>
				<port id="0">
					<dim>1</dim>
					<dim>128</dim>
					<dim>150</dim>
					<dim>150</dim>
				</port>
				<port id="1">
					<dim>1</dim>
					<dim>128</dim>
					<dim>150</dim>
					<dim>150</dim>
				</port>
			</input>
			<output>
				<port id="2">
					<dim>1</dim>
					<dim>128</dim>
					<dim>150</dim>
					<dim>150</dim>
				</port>
			</output>
		</layer>
		<layer id="39" name="Relu_273" precision="FP32" type="ReLU">
			<input>
				<port id="0">
					<dim>1</dim>
					<dim>128</dim>
					<dim>150</dim>
					<dim>150</dim>
				</port>
			</input>
			<output>
				<port id="1">
					<dim>1</dim>
					<dim>128</dim>
					<dim>150</dim>
					<dim>150</dim>
				</port>
			</output>
		</layer>
		<layer id="40" name="Conv_274" precision="FP32" type="Convolution">
			<data dilations="1,1" group="1" kernel="3,3" output="256" pads_begin="1,1" pads_end="1,1" strides="1,1"/>
			<input>
				<port id="0">
					<dim>1</dim>
					<dim>128</dim>
					<dim>150</dim>
					<dim>150</dim>
				</port>
			</input>
			<output>
				<port id="3">
					<dim>1</dim>
					<dim>256</dim>
					<dim>150</dim>
					<dim>150</dim>
				</port>
			</output>
			<blobs>
				<weights offset="5385216" size="1179648"/>
				<biases offset="6564864" size="1024"/>
			</blobs>
		</layer>
		<layer id="41" name="Relu_276" precision="FP32" type="ReLU">
			<input>
				<port id="0">
					<dim>1</dim>
					<dim>256</dim>
					<dim>150</dim>
					<dim>150</dim>
				</port>
			</input>
			<output>
				<port id="1">
					<dim>1</dim>
					<dim>256</dim>
					<dim>150</dim>
					<dim>150</dim>
				</port>
			</output>
		</layer>
		<layer id="42" name="Conv_277" precision="FP32" type="Convolution">
			<data dilations="1,1" group="1" kernel="3,3" output="256" pads_begin="1,1" pads_end="1,1" strides="1,1"/>
			<input>
				<port id="0">
					<dim>1</dim>
					<dim>256</dim>
					<dim>150</dim>
					<dim>150</dim>
				</port>
			</input>
			<output>
				<port id="3">
					<dim>1</dim>
					<dim>256</dim>
					<dim>150</dim>
					<dim>150</dim>
				</port>
			</output>
			<blobs>
				<weights offset="6565888" size="2359296"/>
				<biases offset="8925184" size="1024"/>
			</blobs>
		</layer>
		<layer id="43" name="Conv_279" precision="FP32" type="Convolution">
			<data dilations="1,1" group="1" kernel="1,1" output="256" pads_begin="0,0" pads_end="0,0" strides="1,1"/>
			<input>
				<port id="0">
					<dim>1</dim>
					<dim>128</dim>
					<dim>150</dim>
					<dim>150</dim>
				</port>
			</input>
			<output>
				<port id="3">
					<dim>1</dim>
					<dim>256</dim>
					<dim>150</dim>
					<dim>150</dim>
				</port>
			</output>
			<blobs>
				<weights offset="8926208" size="131072"/>
				<biases offset="9057280" size="1024"/>
			</blobs>
		</layer>
		<layer id="44" name="Add_281" precision="FP32" type="Eltwise">
			<data operation="sum"/>
			<input>
				<port id="0">
					<dim>1</dim>
					<dim>256</dim>
					<dim>150</dim>
					<dim>150</dim>
				</port>
				<port id="1">
					<dim>1</dim>
					<dim>256</dim>
					<dim>150</dim>
					<dim>150</dim>
				</port>
			</input>
			<output>
				<port id="2">
					<dim>1</dim>
					<dim>256</dim>
					<dim>150</dim>
					<dim>150</dim>
				</port>
			</output>
		</layer>
		<layer id="45" name="Relu_282" precision="FP32" type="ReLU">
			<input>
				<port id="0">
					<dim>1</dim>
					<dim>256</dim>
					<dim>150</dim>
					<dim>150</dim>
				</port>
			</input>
			<output>
				<port id="1">
					<dim>1</dim>
					<dim>256</dim>
					<dim>150</dim>
					<dim>150</dim>
				</port>
			</output>
		</layer>
		<layer id="46" name="Conv_283" precision="FP32" type="Convolution">
			<data dilations="1,1" group="1" kernel="3,3" output="256" pads_begin="1,1" pads_end="1,1" strides="1,1"/>
			<input>
				<port id="0">
					<dim>1</dim>
					<dim>256</dim>
					<dim>150</dim>
					<dim>150</dim>
				</port>
			</input>
			<output>
				<port id="3">
					<dim>1</dim>
					<dim>256</dim>
					<dim>150</dim>
					<dim>150</dim>
				</port>
			</output>
			<blobs>
				<weights offset="9058304" size="2359296"/>
				<biases offset="11417600" size="1024"/>
			</blobs>
		</layer>
		<layer id="47" name="Relu_285" precision="FP32" type="ReLU">
			<input>
				<port id="0">
					<dim>1</dim>
					<dim>256</dim>
					<dim>150</dim>
					<dim>150</dim>
				</port>
			</input>
			<output>
				<port id="1">
					<dim>1</dim>
					<dim>256</dim>
					<dim>150</dim>
					<dim>150</dim>
				</port>
			</output>
		</layer>
		<layer id="48" name="Conv_286" precision="FP32" type="Convolution">
			<data dilations="1,1" group="1" kernel="3,3" output="256" pads_begin="1,1" pads_end="1,1" strides="1,1"/>
			<input>
				<port id="0">
					<dim>1</dim>
					<dim>256</dim>
					<dim>150</dim>
					<dim>150</dim>
				</port>
			</input>
			<output>
				<port id="3">
					<dim>1</dim>
					<dim>256</dim>
					<dim>150</dim>
					<dim>150</dim>
				</port>
			</output>
			<blobs>
				<weights offset="11418624" size="2359296"/>
				<biases offset="13777920" size="1024"/>
			</blobs>
		</layer>
		<layer id="49" name="Add_288" precision="FP32" type="Eltwise">
			<data operation="sum"/>
			<input>
				<port id="0">
					<dim>1</dim>
					<dim>256</dim>
					<dim>150</dim>
					<dim>150</dim>
				</port>
				<port id="1">
					<dim>1</dim>
					<dim>256</dim>
					<dim>150</dim>
					<dim>150</dim>
				</port>
			</input>
			<output>
				<port id="2">
					<dim>1</dim>
					<dim>256</dim>
					<dim>150</dim>
					<dim>150</dim>
				</port>
			</output>
		</layer>
		<layer id="50" name="Relu_289" precision="FP32" type="ReLU">
			<input>
				<port id="0">
					<dim>1</dim>
					<dim>256</dim>
					<dim>150</dim>
					<dim>150</dim>
				</port>
			</input>
			<output>
				<port id="1">
					<dim>1</dim>
					<dim>256</dim>
					<dim>150</dim>
					<dim>150</dim>
				</port>
			</output>
		</layer>
		<layer id="51" name="Conv_290" precision="FP32" type="Convolution">
			<data dilations="1,1" group="1" kernel="3,3" output="256" pads_begin="1,1" pads_end="1,1" strides="1,1"/>
			<input>
				<port id="0">
					<dim>1</dim>
					<dim>256</dim>
					<dim>150</dim>
					<dim>150</dim>
				</port>
			</input>
			<output>
				<port id="3">
					<dim>1</dim>
					<dim>256</dim>
					<dim>150</dim>
					<dim>150</dim>
				</port>
			</output>
			<blobs>
				<weights offset="13778944" size="2359296"/>
				<biases offset="16138240" size="1024"/>
			</blobs>
		</layer>
		<layer id="52" name="Relu_292" precision="FP32" type="ReLU">
			<input>
				<port id="0">
					<dim>1</dim>
					<dim>256</dim>
					<dim>150</dim>
					<dim>150</dim>
				</port>
			</input>
			<output>
				<port id="1">
					<dim>1</dim>
					<dim>256</dim>
					<dim>150</dim>
					<dim>150</dim>
				</port>
			</output>
		</layer>
		<layer id="53" name="Conv_293" precision="FP32" type="Convolution">
			<data dilations="1,1" group="1" kernel="3,3" output="256" pads_begin="1,1" pads_end="1,1" strides="1,1"/>
			<input>
				<port id="0">
					<dim>1</dim>
					<dim>256</dim>
					<dim>150</dim>
					<dim>150</dim>
				</port>
			</input>
			<output>
				<port id="3">
					<dim>1</dim>
					<dim>256</dim>
					<dim>150</dim>
					<dim>150</dim>
				</port>
			</output>
			<blobs>
				<weights offset="16139264" size="2359296"/>
				<biases offset="18498560" size="1024"/>
			</blobs>
		</layer>
		<layer id="54" name="Add_295" precision="FP32" type="Eltwise">
			<data operation="sum"/>
			<input>
				<port id="0">
					<dim>1</dim>
					<dim>256</dim>
					<dim>150</dim>
					<dim>150</dim>
				</port>
				<port id="1">
					<dim>1</dim>
					<dim>256</dim>
					<dim>150</dim>
					<dim>150</dim>
				</port>
			</input>
			<output>
				<port id="2">
					<dim>1</dim>
					<dim>256</dim>
					<dim>150</dim>
					<dim>150</dim>
				</port>
			</output>
		</layer>
		<layer id="55" name="Relu_296" precision="FP32" type="ReLU">
			<input>
				<port id="0">
					<dim>1</dim>
					<dim>256</dim>
					<dim>150</dim>
					<dim>150</dim>
				</port>
			</input>
			<output>
				<port id="1">
					<dim>1</dim>
					<dim>256</dim>
					<dim>150</dim>
					<dim>150</dim>
				</port>
			</output>
		</layer>
		<layer id="56" name="Conv_297" precision="FP32" type="Convolution">
			<data dilations="1,1" group="1" kernel="3,3" output="256" pads_begin="1,1" pads_end="1,1" strides="1,1"/>
			<input>
				<port id="0">
					<dim>1</dim>
					<dim>256</dim>
					<dim>150</dim>
					<dim>150</dim>
				</port>
			</input>
			<output>
				<port id="3">
					<dim>1</dim>
					<dim>256</dim>
					<dim>150</dim>
					<dim>150</dim>
				</port>
			</output>
			<blobs>
				<weights offset="18499584" size="2359296"/>
				<biases offset="20858880" size="1024"/>
			</blobs>
		</layer>
		<layer id="57" name="Relu_299" precision="FP32" type="ReLU">
			<input>
				<port id="0">
					<dim>1</dim>
					<dim>256</dim>
					<dim>150</dim>
					<dim>150</dim>
				</port>
			</input>
			<output>
				<port id="1">
					<dim>1</dim>
					<dim>256</dim>
					<dim>150</dim>
					<dim>150</dim>
				</port>
			</output>
		</layer>
		<layer id="58" name="Conv_300" precision="FP32" type="Convolution">
			<data dilations="1,1" group="1" kernel="3,3" output="256" pads_begin="1,1" pads_end="1,1" strides="1,1"/>
			<input>
				<port id="0">
					<dim>1</dim>
					<dim>256</dim>
					<dim>150</dim>
					<dim>150</dim>
				</port>
			</input>
			<output>
				<port id="3">
					<dim>1</dim>
					<dim>256</dim>
					<dim>150</dim>
					<dim>150</dim>
				</port>
			</output>
			<blobs>
				<weights offset="20859904" size="2359296"/>
				<biases offset="23219200" size="1024"/>
			</blobs>
		</layer>
		<layer id="59" name="Add_302" precision="FP32" type="Eltwise">
			<data operation="sum"/>
			<input>
				<port id="0">
					<dim>1</dim>
					<dim>256</dim>
					<dim>150</dim>
					<dim>150</dim>
				</port>
				<port id="1">
					<dim>1</dim>
					<dim>256</dim>
					<dim>150</dim>
					<dim>150</dim>
				</port>
			</input>
			<output>
				<port id="2">
					<dim>1</dim>
					<dim>256</dim>
					<dim>150</dim>
					<dim>150</dim>
				</port>
			</output>
		</layer>
		<layer id="60" name="Relu_303" precision="FP32" type="ReLU">
			<input>
				<port id="0">
					<dim>1</dim>
					<dim>256</dim>
					<dim>150</dim>
					<dim>150</dim>
				</port>
			</input>
			<output>
				<port id="1">
					<dim>1</dim>
					<dim>256</dim>
					<dim>150</dim>
					<dim>150</dim>
				</port>
			</output>
		</layer>
		<layer id="61" name="Conv_304" precision="FP32" type="Convolution">
			<data dilations="1,1" group="1" kernel="3,3" output="256" pads_begin="1,1" pads_end="1,1" strides="1,1"/>
			<input>
				<port id="0">
					<dim>1</dim>
					<dim>256</dim>
					<dim>150</dim>
					<dim>150</dim>
				</port>
			</input>
			<output>
				<port id="3">
					<dim>1</dim>
					<dim>256</dim>
					<dim>150</dim>
					<dim>150</dim>
				</port>
			</output>
			<blobs>
				<weights offset="23220224" size="2359296"/>
				<biases offset="25579520" size="1024"/>
			</blobs>
		</layer>
		<layer id="62" name="Relu_306" precision="FP32" type="ReLU">
			<input>
				<port id="0">
					<dim>1</dim>
					<dim>256</dim>
					<dim>150</dim>
					<dim>150</dim>
				</port>
			</input>
			<output>
				<port id="1">
					<dim>1</dim>
					<dim>256</dim>
					<dim>150</dim>
					<dim>150</dim>
				</port>
			</output>
		</layer>
		<layer id="63" name="Conv_307" precision="FP32" type="Convolution">
			<data dilations="1,1" group="1" kernel="3,3" output="256" pads_begin="1,1" pads_end="1,1" strides="1,1"/>
			<input>
				<port id="0">
					<dim>1</dim>
					<dim>256</dim>
					<dim>150</dim>
					<dim>150</dim>
				</port>
			</input>
			<output>
				<port id="3">
					<dim>1</dim>
					<dim>256</dim>
					<dim>150</dim>
					<dim>150</dim>
				</port>
			</output>
			<blobs>
				<weights offset="25580544" size="2359296"/>
				<biases offset="27939840" size="1024"/>
			</blobs>
		</layer>
		<layer id="64" name="Add_309" precision="FP32" type="Eltwise">
			<data operation="sum"/>
			<input>
				<port id="0">
					<dim>1</dim>
					<dim>256</dim>
					<dim>150</dim>
					<dim>150</dim>
				</port>
				<port id="1">
					<dim>1</dim>
					<dim>256</dim>
					<dim>150</dim>
					<dim>150</dim>
				</port>
			</input>
			<output>
				<port id="2">
					<dim>1</dim>
					<dim>256</dim>
					<dim>150</dim>
					<dim>150</dim>
				</port>
			</output>
		</layer>
		<layer id="65" name="Relu_310" precision="FP32" type="ReLU">
			<input>
				<port id="0">
					<dim>1</dim>
					<dim>256</dim>
					<dim>150</dim>
					<dim>150</dim>
				</port>
			</input>
			<output>
				<port id="1">
					<dim>1</dim>
					<dim>256</dim>
					<dim>150</dim>
					<dim>150</dim>
				</port>
			</output>
		</layer>
		<layer id="66" name="Conv_311" precision="FP32" type="Convolution">
			<data dilations="1,1" group="1" kernel="3,3" output="256" pads_begin="1,1" pads_end="1,1" strides="1,1"/>
			<input>
				<port id="0">
					<dim>1</dim>
					<dim>256</dim>
					<dim>150</dim>
					<dim>150</dim>
				</port>
			</input>
			<output>
				<port id="3">
					<dim>1</dim>
					<dim>256</dim>
					<dim>150</dim>
					<dim>150</dim>
				</port>
			</output>
			<blobs>
				<weights offset="27940864" size="2359296"/>
				<biases offset="30300160" size="1024"/>
			</blobs>
		</layer>
		<layer id="67" name="Relu_313" precision="FP32" type="ReLU">
			<input>
				<port id="0">
					<dim>1</dim>
					<dim>256</dim>
					<dim>150</dim>
					<dim>150</dim>
				</port>
			</input>
			<output>
				<port id="1">
					<dim>1</dim>
					<dim>256</dim>
					<dim>150</dim>
					<dim>150</dim>
				</port>
			</output>
		</layer>
		<layer id="68" name="Conv_314" precision="FP32" type="Convolution">
			<data dilations="1,1" group="1" kernel="3,3" output="256" pads_begin="1,1" pads_end="1,1" strides="1,1"/>
			<input>
				<port id="0">
					<dim>1</dim>
					<dim>256</dim>
					<dim>150</dim>
					<dim>150</dim>
				</port>
			</input>
			<output>
				<port id="3">
					<dim>1</dim>
					<dim>256</dim>
					<dim>150</dim>
					<dim>150</dim>
				</port>
			</output>
			<blobs>
				<weights offset="30301184" size="2359296"/>
				<biases offset="32660480" size="1024"/>
			</blobs>
		</layer>
		<layer id="69" name="Add_316" precision="FP32" type="Eltwise">
			<data operation="sum"/>
			<input>
				<port id="0">
					<dim>1</dim>
					<dim>256</dim>
					<dim>150</dim>
					<dim>150</dim>
				</port>
				<port id="1">
					<dim>1</dim>
					<dim>256</dim>
					<dim>150</dim>
					<dim>150</dim>
				</port>
			</input>
			<output>
				<port id="2">
					<dim>1</dim>
					<dim>256</dim>
					<dim>150</dim>
					<dim>150</dim>
				</port>
			</output>
		</layer>
		<layer id="70" name="Relu_317" precision="FP32" type="ReLU">
			<input>
				<port id="0">
					<dim>1</dim>
					<dim>256</dim>
					<dim>150</dim>
					<dim>150</dim>
				</port>
			</input>
			<output>
				<port id="1">
					<dim>1</dim>
					<dim>256</dim>
					<dim>150</dim>
					<dim>150</dim>
				</port>
			</output>
		</layer>
		<layer id="71" name="Conv_338" precision="FP32" type="Convolution">
			<data dilations="1,1" group="1" kernel="3,3" output="16" pads_begin="1,1" pads_end="1,1" strides="3,3"/>
			<input>
				<port id="0">
					<dim>1</dim>
					<dim>256</dim>
					<dim>150</dim>
					<dim>150</dim>
				</port>
			</input>
			<output>
				<port id="3">
					<dim>1</dim>
					<dim>16</dim>
					<dim>50</dim>
					<dim>50</dim>
				</port>
			</output>
			<blobs>
				<weights offset="32661504" size="147456"/>
				<biases offset="32808960" size="64"/>
			</blobs>
		</layer>
		<layer id="72" name="Concat_347/Output_0/Data__const" precision="I32" type="Const">
			<output>
				<port id="1">
					<dim>3</dim>
				</port>
			</output>
			<blobs>
				<custom offset="32809024" size="12"/>
			</blobs>
		</layer>
		<layer id="73" name="Reshape_348" precision="FP32" type="Reshape">
			<input>
				<port id="0">
					<dim>1</dim>
					<dim>16</dim>
					<dim>50</dim>
					<dim>50</dim>
				</port>
				<port id="1">
					<dim>3</dim>
				</port>
			</input>
			<output>
				<port id="2">
					<dim>1</dim>
					<dim>4</dim>
					<dim>10000</dim>
				</port>
			</output>
		</layer>
		<layer id="74" name="Conv_318" precision="FP32" type="Convolution">
			<data dilations="1,1" group="1" kernel="1,1" output="256" pads_begin="0,0" pads_end="0,0" strides="1,1"/>
			<input>
				<port id="0">
					<dim>1</dim>
					<dim>256</dim>
					<dim>150</dim>
					<dim>150</dim>
				</port>
			</input>
			<output>
				<port id="3">
					<dim>1</dim>
					<dim>256</dim>
					<dim>150</dim>
					<dim>150</dim>
				</port>
			</output>
			<blobs>
				<weights offset="32809036" size="262144"/>
				<biases offset="33071180" size="1024"/>
			</blobs>
		</layer>
		<layer id="75" name="Relu_319" precision="FP32" type="ReLU">
			<input>
				<port id="0">
					<dim>1</dim>
					<dim>256</dim>
					<dim>150</dim>
					<dim>150</dim>
				</port>
			</input>
			<output>
				<port id="1">
					<dim>1</dim>
					<dim>256</dim>
					<dim>150</dim>
					<dim>150</dim>
				</port>
			</output>
		</layer>
		<layer id="76" name="Conv_320" precision="FP32" type="Convolution">
			<data dilations="1,1" group="1" kernel="3,3" output="512" pads_begin="1,1" pads_end="1,1" strides="2,2"/>
			<input>
				<port id="0">
					<dim>1</dim>
					<dim>256</dim>
					<dim>150</dim>
					<dim>150</dim>
				</port>
			</input>
			<output>
				<port id="3">
					<dim>1</dim>
					<dim>512</dim>
					<dim>75</dim>
					<dim>75</dim>
				</port>
			</output>
			<blobs>
				<weights offset="33072204" size="4718592"/>
				<biases offset="37790796" size="2048"/>
			</blobs>
		</layer>
		<layer id="77" name="Relu_321" precision="FP32" type="ReLU">
			<input>
				<port id="0">
					<dim>1</dim>
					<dim>512</dim>
					<dim>75</dim>
					<dim>75</dim>
				</port>
			</input>
			<output>
				<port id="1">
					<dim>1</dim>
					<dim>512</dim>
					<dim>75</dim>
					<dim>75</dim>
				</port>
			</output>
		</layer>
		<layer id="78" name="Conv_360" precision="FP32" type="Convolution">
			<data dilations="1,1" group="1" kernel="3,3" output="24" pads_begin="1,1" pads_end="1,1" strides="3,3"/>
			<input>
				<port id="0">
					<dim>1</dim>
					<dim>512</dim>
					<dim>75</dim>
					<dim>75</dim>
				</port>
			</input>
			<output>
				<port id="3">
					<dim>1</dim>
					<dim>24</dim>
					<dim>25</dim>
					<dim>25</dim>
				</port>
			</output>
			<blobs>
				<weights offset="37792844" size="442368"/>
				<biases offset="38235212" size="96"/>
			</blobs>
		</layer>
		<layer id="79" name="Concat_369/Output_0/Data__const" precision="I32" type="Const">
			<output>
				<port id="1">
					<dim>3</dim>
				</port>
			</output>
			<blobs>
				<custom offset="32809024" size="12"/>
			</blobs>
		</layer>
		<layer id="80" name="Reshape_370" precision="FP32" type="Reshape">
			<input>
				<port id="0">
					<dim>1</dim>
					<dim>24</dim>
					<dim>25</dim>
					<dim>25</dim>
				</port>
				<port id="1">
					<dim>3</dim>
				</port>
			</input>
			<output>
				<port id="2">
					<dim>1</dim>
					<dim>4</dim>
					<dim>3750</dim>
				</port>
			</output>
		</layer>
		<layer id="81" name="Conv_322" precision="FP32" type="Convolution">
			<data dilations="1,1" group="1" kernel="1,1" output="256" pads_begin="0,0" pads_end="0,0" strides="1,1"/>
			<input>
				<port id="0">
					<dim>1</dim>
					<dim>512</dim>
					<dim>75</dim>
					<dim>75</dim>
				</port>
			</input>
			<output>
				<port id="3">
					<dim>1</dim>
					<dim>256</dim>
					<dim>75</dim>
					<dim>75</dim>
				</port>
			</output>
			<blobs>
				<weights offset="38235308" size="524288"/>
				<biases offset="38759596" size="1024"/>
			</blobs>
		</layer>
		<layer id="82" name="Relu_323" precision="FP32" type="ReLU">
			<input>
				<port id="0">
					<dim>1</dim>
					<dim>256</dim>
					<dim>75</dim>
					<dim>75</dim>
				</port>
			</input>
			<output>
				<port id="1">
					<dim>1</dim>
					<dim>256</dim>
					<dim>75</dim>
					<dim>75</dim>
				</port>
			</output>
		</layer>
		<layer id="83" name="Conv_324" precision="FP32" type="Convolution">
			<data dilations="1,1" group="1" kernel="3,3" output="512" pads_begin="1,1" pads_end="1,1" strides="2,2"/>
			<input>
				<port id="0">
					<dim>1</dim>
					<dim>256</dim>
					<dim>75</dim>
					<dim>75</dim>
				</port>
			</input>
			<output>
				<port id="3">
					<dim>1</dim>
					<dim>512</dim>
					<dim>38</dim>
					<dim>38</dim>
				</port>
			</output>
			<blobs>
				<weights offset="38760620" size="4718592"/>
				<biases offset="43479212" size="2048"/>
			</blobs>
		</layer>
		<layer id="84" name="Relu_325" precision="FP32" type="ReLU">
			<input>
				<port id="0">
					<dim>1</dim>
					<dim>512</dim>
					<dim>38</dim>
					<dim>38</dim>
				</port>
			</input>
			<output>
				<port id="1">
					<dim>1</dim>
					<dim>512</dim>
					<dim>38</dim>
					<dim>38</dim>
				</port>
			</output>
		</layer>
		<layer id="85" name="Conv_382" precision="FP32" type="Convolution">
			<data dilations="1,1" group="1" kernel="3,3" output="24" pads_begin="1,1" pads_end="1,1" strides="3,3"/>
			<input>
				<port id="0">
					<dim>1</dim>
					<dim>512</dim>
					<dim>38</dim>
					<dim>38</dim>
				</port>
			</input>
			<output>
				<port id="3">
					<dim>1</dim>
					<dim>24</dim>
					<dim>13</dim>
					<dim>13</dim>
				</port>
			</output>
			<blobs>
				<weights offset="43481260" size="442368"/>
				<biases offset="43923628" size="96"/>
			</blobs>
		</layer>
		<layer id="86" name="Concat_391/Output_0/Data__const" precision="I32" type="Const">
			<output>
				<port id="1">
					<dim>3</dim>
				</port>
			</output>
			<blobs>
				<custom offset="32809024" size="12"/>
			</blobs>
		</layer>
		<layer id="87" name="Reshape_392" precision="FP32" type="Reshape">
			<input>
				<port id="0">
					<dim>1</dim>
					<dim>24</dim>
					<dim>13</dim>
					<dim>13</dim>
				</port>
				<port id="1">
					<dim>3</dim>
				</port>
			</input>
			<output>
				<port id="2">
					<dim>1</dim>
					<dim>4</dim>
					<dim>1014</dim>
				</port>
			</output>
		</layer>
		<layer id="88" name="Conv_326" precision="FP32" type="Convolution">
			<data dilations="1,1" group="1" kernel="1,1" output="128" pads_begin="0,0" pads_end="0,0" strides="1,1"/>
			<input>
				<port id="0">
					<dim>1</dim>
					<dim>512</dim>
					<dim>38</dim>
					<dim>38</dim>
				</port>
			</input>
			<output>
				<port id="3">
					<dim>1</dim>
					<dim>128</dim>
					<dim>38</dim>
					<dim>38</dim>
				</port>
			</output>
			<blobs>
				<weights offset="43923724" size="262144"/>
				<biases offset="44185868" size="512"/>
			</blobs>
		</layer>
		<layer id="89" name="Relu_327" precision="FP32" type="ReLU">
			<input>
				<port id="0">
					<dim>1</dim>
					<dim>128</dim>
					<dim>38</dim>
					<dim>38</dim>
				</port>
			</input>
			<output>
				<port id="1">
					<dim>1</dim>
					<dim>128</dim>
					<dim>38</dim>
					<dim>38</dim>
				</port>
			</output>
		</layer>
		<layer id="90" name="Conv_328" precision="FP32" type="Convolution">
			<data dilations="1,1" group="1" kernel="3,3" output="256" pads_begin="1,1" pads_end="1,1" strides="2,2"/>
			<input>
				<port id="0">
					<dim>1</dim>
					<dim>128</dim>
					<dim>38</dim>
					<dim>38</dim>
				</port>
			</input>
			<output>
				<port id="3">
					<dim>1</dim>
					<dim>256</dim>
					<dim>19</dim>
					<dim>19</dim>
				</port>
			</output>
			<blobs>
				<weights offset="44186380" size="1179648"/>
				<biases offset="45366028" size="1024"/>
			</blobs>
		</layer>
		<layer id="91" name="Relu_329" precision="FP32" type="ReLU">
			<input>
				<port id="0">
					<dim>1</dim>
					<dim>256</dim>
					<dim>19</dim>
					<dim>19</dim>
				</port>
			</input>
			<output>
				<port id="1">
					<dim>1</dim>
					<dim>256</dim>
					<dim>19</dim>
					<dim>19</dim>
				</port>
			</output>
		</layer>
		<layer id="92" name="Conv_404" precision="FP32" type="Convolution">
			<data dilations="1,1" group="1" kernel="3,3" output="24" pads_begin="1,1" pads_end="1,1" strides="3,3"/>
			<input>
				<port id="0">
					<dim>1</dim>
					<dim>256</dim>
					<dim>19</dim>
					<dim>19</dim>
				</port>
			</input>
			<output>
				<port id="3">
					<dim>1</dim>
					<dim>24</dim>
					<dim>7</dim>
					<dim>7</dim>
				</port>
			</output>
			<blobs>
				<weights offset="45367052" size="221184"/>
				<biases offset="45588236" size="96"/>
			</blobs>
		</layer>
		<layer id="93" name="Concat_413/Output_0/Data__const" precision="I32" type="Const">
			<output>
				<port id="1">
					<dim>3</dim>
				</port>
			</output>
			<blobs>
				<custom offset="32809024" size="12"/>
			</blobs>
		</layer>
		<layer id="94" name="Reshape_414" precision="FP32" type="Reshape">
			<input>
				<port id="0">
					<dim>1</dim>
					<dim>24</dim>
					<dim>7</dim>
					<dim>7</dim>
				</port>
				<port id="1">
					<dim>3</dim>
				</port>
			</input>
			<output>
				<port id="2">
					<dim>1</dim>
					<dim>4</dim>
					<dim>294</dim>
				</port>
			</output>
		</layer>
		<layer id="95" name="Conv_330" precision="FP32" type="Convolution">
			<data dilations="1,1" group="1" kernel="1,1" output="128" pads_begin="0,0" pads_end="0,0" strides="1,1"/>
			<input>
				<port id="0">
					<dim>1</dim>
					<dim>256</dim>
					<dim>19</dim>
					<dim>19</dim>
				</port>
			</input>
			<output>
				<port id="3">
					<dim>1</dim>
					<dim>128</dim>
					<dim>19</dim>
					<dim>19</dim>
				</port>
			</output>
			<blobs>
				<weights offset="45588332" size="131072"/>
				<biases offset="45719404" size="512"/>
			</blobs>
		</layer>
		<layer id="96" name="Relu_331" precision="FP32" type="ReLU">
			<input>
				<port id="0">
					<dim>1</dim>
					<dim>128</dim>
					<dim>19</dim>
					<dim>19</dim>
				</port>
			</input>
			<output>
				<port id="1">
					<dim>1</dim>
					<dim>128</dim>
					<dim>19</dim>
					<dim>19</dim>
				</port>
			</output>
		</layer>
		<layer id="97" name="Conv_332" precision="FP32" type="Convolution">
			<data dilations="1,1" group="1" kernel="3,3" output="256" pads_begin="0,0" pads_end="0,0" strides="2,2"/>
			<input>
				<port id="0">
					<dim>1</dim>
					<dim>128</dim>
					<dim>19</dim>
					<dim>19</dim>
				</port>
			</input>
			<output>
				<port id="3">
					<dim>1</dim>
					<dim>256</dim>
					<dim>9</dim>
					<dim>9</dim>
				</port>
			</output>
			<blobs>
				<weights offset="45719916" size="1179648"/>
				<biases offset="46899564" size="1024"/>
			</blobs>
		</layer>
		<layer id="98" name="Relu_333" precision="FP32" type="ReLU">
			<input>
				<port id="0">
					<dim>1</dim>
					<dim>256</dim>
					<dim>9</dim>
					<dim>9</dim>
				</port>
			</input>
			<output>
				<port id="1">
					<dim>1</dim>
					<dim>256</dim>
					<dim>9</dim>
					<dim>9</dim>
				</port>
			</output>
		</layer>
		<layer id="99" name="Conv_426" precision="FP32" type="Convolution">
			<data dilations="1,1" group="1" kernel="3,3" output="16" pads_begin="1,1" pads_end="1,1" strides="3,3"/>
			<input>
				<port id="0">
					<dim>1</dim>
					<dim>256</dim>
					<dim>9</dim>
					<dim>9</dim>
				</port>
			</input>
			<output>
				<port id="3">
					<dim>1</dim>
					<dim>16</dim>
					<dim>3</dim>
					<dim>3</dim>
				</port>
			</output>
			<blobs>
				<weights offset="46900588" size="147456"/>
				<biases offset="47048044" size="64"/>
			</blobs>
		</layer>
		<layer id="100" name="Concat_435/Output_0/Data__const" precision="I32" type="Const">
			<output>
				<port id="1">
					<dim>3</dim>
				</port>
			</output>
			<blobs>
				<custom offset="32809024" size="12"/>
			</blobs>
		</layer>
		<layer id="101" name="Reshape_436" precision="FP32" type="Reshape">
			<input>
				<port id="0">
					<dim>1</dim>
					<dim>16</dim>
					<dim>3</dim>
					<dim>3</dim>
				</port>
				<port id="1">
					<dim>3</dim>
				</port>
			</input>
			<output>
				<port id="2">
					<dim>1</dim>
					<dim>4</dim>
					<dim>36</dim>
				</port>
			</output>
		</layer>
		<layer id="102" name="Conv_334" precision="FP32" type="Convolution">
			<data dilations="1,1" group="1" kernel="1,1" output="128" pads_begin="0,0" pads_end="0,0" strides="1,1"/>
			<input>
				<port id="0">
					<dim>1</dim>
					<dim>256</dim>
					<dim>9</dim>
					<dim>9</dim>
				</port>
			</input>
			<output>
				<port id="3">
					<dim>1</dim>
					<dim>128</dim>
					<dim>9</dim>
					<dim>9</dim>
				</port>
			</output>
			<blobs>
				<weights offset="47048108" size="131072"/>
				<biases offset="47179180" size="512"/>
			</blobs>
		</layer>
		<layer id="103" name="Relu_335" precision="FP32" type="ReLU">
			<input>
				<port id="0">
					<dim>1</dim>
					<dim>128</dim>
					<dim>9</dim>
					<dim>9</dim>
				</port>
			</input>
			<output>
				<port id="1">
					<dim>1</dim>
					<dim>128</dim>
					<dim>9</dim>
					<dim>9</dim>
				</port>
			</output>
		</layer>
		<layer id="104" name="Conv_336" precision="FP32" type="Convolution">
			<data dilations="1,1" group="1" kernel="3,3" output="256" pads_begin="0,0" pads_end="0,0" strides="1,1"/>
			<input>
				<port id="0">
					<dim>1</dim>
					<dim>128</dim>
					<dim>9</dim>
					<dim>9</dim>
				</port>
			</input>
			<output>
				<port id="3">
					<dim>1</dim>
					<dim>256</dim>
					<dim>7</dim>
					<dim>7</dim>
				</port>
			</output>
			<blobs>
				<weights offset="47179692" size="1179648"/>
				<biases offset="48359340" size="1024"/>
			</blobs>
		</layer>
		<layer id="105" name="Relu_337" precision="FP32" type="ReLU">
			<input>
				<port id="0">
					<dim>1</dim>
					<dim>256</dim>
					<dim>7</dim>
					<dim>7</dim>
				</port>
			</input>
			<output>
				<port id="1">
					<dim>1</dim>
					<dim>256</dim>
					<dim>7</dim>
					<dim>7</dim>
				</port>
			</output>
		</layer>
		<layer id="106" name="Conv_448" precision="FP32" type="Convolution">
			<data dilations="1,1" group="1" kernel="3,3" output="16" pads_begin="1,1" pads_end="1,1" strides="3,3"/>
			<input>
				<port id="0">
					<dim>1</dim>
					<dim>256</dim>
					<dim>7</dim>
					<dim>7</dim>
				</port>
			</input>
			<output>
				<port id="3">
					<dim>1</dim>
					<dim>16</dim>
					<dim>3</dim>
					<dim>3</dim>
				</port>
			</output>
			<blobs>
				<weights offset="48360364" size="147456"/>
				<biases offset="48507820" size="64"/>
			</blobs>
		</layer>
		<layer id="107" name="Concat_457/Output_0/Data__const" precision="I32" type="Const">
			<output>
				<port id="1">
					<dim>3</dim>
				</port>
			</output>
			<blobs>
				<custom offset="32809024" size="12"/>
			</blobs>
		</layer>
		<layer id="108" name="Reshape_458" precision="FP32" type="Reshape">
			<input>
				<port id="0">
					<dim>1</dim>
					<dim>16</dim>
					<dim>3</dim>
					<dim>3</dim>
				</port>
				<port id="1">
					<dim>3</dim>
				</port>
			</input>
			<output>
				<port id="2">
					<dim>1</dim>
					<dim>4</dim>
					<dim>36</dim>
				</port>
			</output>
		</layer>
		<layer id="109" name="Concat_470" precision="FP32" type="Concat">
			<data axis="2"/>
			<input>
				<port id="0">
					<dim>1</dim>
					<dim>4</dim>
					<dim>10000</dim>
				</port>
				<port id="1">
					<dim>1</dim>
					<dim>4</dim>
					<dim>3750</dim>
				</port>
				<port id="2">
					<dim>1</dim>
					<dim>4</dim>
					<dim>1014</dim>
				</port>
				<port id="3">
					<dim>1</dim>
					<dim>4</dim>
					<dim>294</dim>
				</port>
				<port id="4">
					<dim>1</dim>
					<dim>4</dim>
					<dim>36</dim>
				</port>
				<port id="5">
					<dim>1</dim>
					<dim>4</dim>
					<dim>36</dim>
				</port>
			</input>
			<output>
				<port id="6">
					<dim>1</dim>
					<dim>4</dim>
					<dim>15130</dim>
				</port>
			</output>
		</layer>
		<layer id="110" name="Transpose_472" precision="FP32" type="Permute">
			<data order="0,2,1"/>
			<input>
				<port id="0">
					<dim>1</dim>
					<dim>4</dim>
					<dim>15130</dim>
				</port>
			</input>
			<output>
				<port id="1">
					<dim>1</dim>
					<dim>15130</dim>
					<dim>4</dim>
				</port>
			</output>
		</layer>
		<layer id="111" name="68796883_const" precision="I32" type="Const">
			<output>
				<port id="1">
					<dim>3</dim>
				</port>
			</output>
			<blobs>
				<custom offset="48507884" size="12"/>
			</blobs>
		</layer>
		<layer id="112" name="68806884_const" precision="I32" type="Const">
			<output>
				<port id="1">
					<dim>3</dim>
				</port>
			</output>
			<blobs>
				<custom offset="48507896" size="12"/>
			</blobs>
		</layer>
		<layer id="113" name="68816885_const" precision="I32" type="Const">
			<output>
				<port id="1">
					<dim>3</dim>
				</port>
			</output>
			<blobs>
				<custom offset="48507908" size="12"/>
			</blobs>
		</layer>
		<layer id="114" name="6882" precision="FP32" type="StridedSlice">
			<data begin_mask="0,0,1" ellipsis_mask="0,0,0" end_mask="0,0,1" new_axis_mask="0,0,0" shrink_axis_mask="0,0,0"/>
			<input>
				<port id="0">
					<dim>1</dim>
					<dim>15130</dim>
					<dim>4</dim>
				</port>
				<port id="1">
					<dim>3</dim>
				</port>
				<port id="2">
					<dim>3</dim>
				</port>
				<port id="3">
					<dim>3</dim>
				</port>
			</input>
			<output>
				<port id="4">
					<dim>1</dim>
					<dim>15130</dim>
					<dim>2</dim>
				</port>
			</output>
		</layer>
		<layer id="115" name="Mul_507" precision="FP32" type="Power">
			<data power="1" scale="0.20000000298023224" shift="0"/>
			<input>
				<port id="0">
					<dim>1</dim>
					<dim>15130</dim>
					<dim>2</dim>
				</port>
			</input>
			<output>
				<port id="1">
					<dim>1</dim>
					<dim>15130</dim>
					<dim>2</dim>
				</port>
			</output>
		</layer>
		<layer id="116" name="Exp_512" precision="FP32" type="Activation">
			<data type="exp"/>
			<input>
				<port id="0">
					<dim>1</dim>
					<dim>15130</dim>
					<dim>2</dim>
				</port>
			</input>
			<output>
				<port id="1">
					<dim>1</dim>
					<dim>15130</dim>
					<dim>2</dim>
				</port>
			</output>
		</layer>
		<layer id="117" name="Constant_513/Output_0/Data__const" precision="FP32" type="Const">
			<output>
				<port id="1">
					<dim>1</dim>
					<dim>15130</dim>
					<dim>2</dim>
				</port>
			</output>
			<blobs>
				<custom offset="48507920" size="121040"/>
			</blobs>
		</layer>
		<layer id="118" name="Mul_514" precision="FP32" type="Eltwise">
			<data operation="mul"/>
			<input>
				<port id="0">
					<dim>1</dim>
					<dim>15130</dim>
					<dim>2</dim>
				</port>
				<port id="1">
					<dim>1</dim>
					<dim>15130</dim>
					<dim>2</dim>
				</port>
			</input>
			<output>
				<port id="2">
					<dim>1</dim>
					<dim>15130</dim>
					<dim>2</dim>
				</port>
			</output>
		</layer>
		<layer id="119" name="66396643_const" precision="I32" type="Const">
			<output>
				<port id="1">
					<dim>3</dim>
				</port>
			</output>
			<blobs>
				<custom offset="48628960" size="12"/>
			</blobs>
		</layer>
		<layer id="120" name="66406644_const" precision="I32" type="Const">
			<output>
				<port id="1">
					<dim>3</dim>
				</port>
			</output>
			<blobs>
				<custom offset="48628972" size="12"/>
			</blobs>
		</layer>
		<layer id="121" name="66416645_const" precision="I32" type="Const">
			<output>
				<port id="1">
					<dim>3</dim>
				</port>
			</output>
			<blobs>
				<custom offset="48507908" size="12"/>
			</blobs>
		</layer>
		<layer id="122" name="6642" precision="FP32" type="StridedSlice">
			<data begin_mask="0,0,0" ellipsis_mask="0,0,0" end_mask="0,0,1" new_axis_mask="0,0,0" shrink_axis_mask="0,0,0"/>
			<input>
				<port id="0">
					<dim>1</dim>
					<dim>15130</dim>
					<dim>2</dim>
				</port>
				<port id="1">
					<dim>3</dim>
				</port>
				<port id="2">
					<dim>3</dim>
				</port>
				<port id="3">
					<dim>3</dim>
				</port>
			</input>
			<output>
				<port id="4">
					<dim>1</dim>
					<dim>15130</dim>
					<dim>1</dim>
				</port>
			</output>
		</layer>
		<layer id="123" name="Squeeze_546/Dims/Output_0/Data__const" precision="I32" type="Const">
			<output>
				<port id="1">
					<dim>1</dim>
				</port>
			</output>
			<blobs>
				<custom offset="48628984" size="4"/>
			</blobs>
		</layer>
		<layer id="124" name="Squeeze_546" precision="FP32" type="Squeeze">
			<input>
				<port id="0">
					<dim>1</dim>
					<dim>15130</dim>
					<dim>1</dim>
				</port>
				<port id="1">
					<dim>1</dim>
				</port>
			</input>
			<output>
				<port id="2">
					<dim>1</dim>
					<dim>15130</dim>
				</port>
			</output>
		</layer>
		<layer id="125" name="Mul_548/Fused_Mul_" precision="FP32" type="Power">
			<data power="1" scale="-0.5" shift="0"/>
			<input>
				<port id="0">
					<dim>1</dim>
					<dim>15130</dim>
				</port>
			</input>
			<output>
				<port id="1">
					<dim>1</dim>
					<dim>15130</dim>
				</port>
			</output>
		</layer>
		<layer id="126" name="66236627_const" precision="I32" type="Const">
			<output>
				<port id="1">
					<dim>3</dim>
				</port>
			</output>
			<blobs>
				<custom offset="48628960" size="12"/>
			</blobs>
		</layer>
		<layer id="127" name="66246628_const" precision="I32" type="Const">
			<output>
				<port id="1">
					<dim>3</dim>
				</port>
			</output>
			<blobs>
				<custom offset="48507884" size="12"/>
			</blobs>
		</layer>
		<layer id="128" name="66256629_const" precision="I32" type="Const">
			<output>
				<port id="1">
					<dim>3</dim>
				</port>
			</output>
			<blobs>
				<custom offset="48507908" size="12"/>
			</blobs>
		</layer>
		<layer id="129" name="6626" precision="FP32" type="StridedSlice">
			<data begin_mask="0,0,0" ellipsis_mask="0,0,0" end_mask="0,0,1" new_axis_mask="0,0,0" shrink_axis_mask="0,0,0"/>
			<input>
				<port id="0">
					<dim>1</dim>
					<dim>15130</dim>
					<dim>4</dim>
				</port>
				<port id="1">
					<dim>3</dim>
				</port>
				<port id="2">
					<dim>3</dim>
				</port>
				<port id="3">
					<dim>3</dim>
				</port>
			</input>
			<output>
				<port id="4">
					<dim>1</dim>
					<dim>15130</dim>
					<dim>2</dim>
				</port>
			</output>
		</layer>
		<layer id="130" name="Mul_490" precision="FP32" type="Power">
			<data power="1" scale="0.10000000149011612" shift="0"/>
			<input>
				<port id="0">
					<dim>1</dim>
					<dim>15130</dim>
					<dim>2</dim>
				</port>
			</input>
			<output>
				<port id="1">
					<dim>1</dim>
					<dim>15130</dim>
					<dim>2</dim>
				</port>
			</output>
		</layer>
		<layer id="131" name="Constant_508/Output_0/Data__const" precision="FP32" type="Const">
			<output>
				<port id="1">
					<dim>1</dim>
					<dim>15130</dim>
					<dim>2</dim>
				</port>
			</output>
			<blobs>
				<custom offset="48507920" size="121040"/>
			</blobs>
		</layer>
		<layer id="132" name="Mul_509" precision="FP32" type="Eltwise">
			<data operation="mul"/>
			<input>
				<port id="0">
					<dim>1</dim>
					<dim>15130</dim>
					<dim>2</dim>
				</port>
				<port id="1">
					<dim>1</dim>
					<dim>15130</dim>
					<dim>2</dim>
				</port>
			</input>
			<output>
				<port id="2">
					<dim>1</dim>
					<dim>15130</dim>
					<dim>2</dim>
				</port>
			</output>
		</layer>
		<layer id="133" name="Constant_510/Output_0/Data__const" precision="FP32" type="Const">
			<output>
				<port id="1">
					<dim>1</dim>
					<dim>15130</dim>
					<dim>2</dim>
				</port>
			</output>
			<blobs>
				<custom offset="48628988" size="121040"/>
			</blobs>
		</layer>
		<layer id="134" name="Add_511" precision="FP32" type="Eltwise">
			<data operation="sum"/>
			<input>
				<port id="0">
					<dim>1</dim>
					<dim>15130</dim>
					<dim>2</dim>
				</port>
				<port id="1">
					<dim>1</dim>
					<dim>15130</dim>
					<dim>2</dim>
				</port>
			</input>
			<output>
				<port id="2">
					<dim>1</dim>
					<dim>15130</dim>
					<dim>2</dim>
				</port>
			</output>
		</layer>
		<layer id="135" name="68876891_const" precision="I32" type="Const">
			<output>
				<port id="1">
					<dim>3</dim>
				</port>
			</output>
			<blobs>
				<custom offset="48628960" size="12"/>
			</blobs>
		</layer>
		<layer id="136" name="68886892_const" precision="I32" type="Const">
			<output>
				<port id="1">
					<dim>3</dim>
				</port>
			</output>
			<blobs>
				<custom offset="48628972" size="12"/>
			</blobs>
		</layer>
		<layer id="137" name="68896893_const" precision="I32" type="Const">
			<output>
				<port id="1">
					<dim>3</dim>
				</port>
			</output>
			<blobs>
				<custom offset="48507908" size="12"/>
			</blobs>
		</layer>
		<layer id="138" name="6890" precision="FP32" type="StridedSlice">
			<data begin_mask="0,0,0" ellipsis_mask="0,0,0" end_mask="0,0,1" new_axis_mask="0,0,0" shrink_axis_mask="0,0,0"/>
			<input>
				<port id="0">
					<dim>1</dim>
					<dim>15130</dim>
					<dim>2</dim>
				</port>
				<port id="1">
					<dim>3</dim>
				</port>
				<port id="2">
					<dim>3</dim>
				</port>
				<port id="3">
					<dim>3</dim>
				</port>
			</input>
			<output>
				<port id="4">
					<dim>1</dim>
					<dim>15130</dim>
					<dim>1</dim>
				</port>
			</output>
		</layer>
		<layer id="139" name="Squeeze_530/Dims/Output_0/Data__const" precision="I32" type="Const">
			<output>
				<port id="1">
					<dim>1</dim>
				</port>
			</output>
			<blobs>
				<custom offset="48628984" size="4"/>
			</blobs>
		</layer>
		<layer id="140" name="Squeeze_530" precision="FP32" type="Squeeze">
			<input>
				<port id="0">
					<dim>1</dim>
					<dim>15130</dim>
					<dim>1</dim>
				</port>
				<port id="1">
					<dim>1</dim>
				</port>
			</input>
			<output>
				<port id="2">
					<dim>1</dim>
					<dim>15130</dim>
				</port>
			</output>
		</layer>
		<layer id="141" name="Sub_549/add_" precision="FP32" type="Eltwise">
			<data operation="sum"/>
			<input>
				<port id="0">
					<dim>1</dim>
					<dim>15130</dim>
				</port>
				<port id="1">
					<dim>1</dim>
					<dim>15130</dim>
				</port>
			</input>
			<output>
				<port id="2">
					<dim>1</dim>
					<dim>15130</dim>
				</port>
			</output>
		</layer>
		<layer id="142" name="Unsqueeze_655/Dims/Output_0/Data__const" precision="I32" type="Const">
			<output>
				<port id="1">
					<dim>1</dim>
				</port>
			</output>
			<blobs>
				<custom offset="48628984" size="4"/>
			</blobs>
		</layer>
		<layer id="143" name="Unsqueeze_655823" precision="FP32" type="Unsqueeze">
			<input>
				<port id="0">
					<dim>1</dim>
					<dim>15130</dim>
				</port>
				<port id="1">
					<dim>1</dim>
				</port>
			</input>
			<output>
				<port id="2">
					<dim>1</dim>
					<dim>15130</dim>
					<dim>1</dim>
				</port>
			</output>
		</layer>
		<layer id="144" name="66476651_const" precision="I32" type="Const">
			<output>
				<port id="1">
					<dim>3</dim>
				</port>
			</output>
			<blobs>
				<custom offset="48628972" size="12"/>
			</blobs>
		</layer>
		<layer id="145" name="66486652_const" precision="I32" type="Const">
			<output>
				<port id="1">
					<dim>3</dim>
				</port>
			</output>
			<blobs>
				<custom offset="48507884" size="12"/>
			</blobs>
		</layer>
		<layer id="146" name="66496653_const" precision="I32" type="Const">
			<output>
				<port id="1">
					<dim>3</dim>
				</port>
			</output>
			<blobs>
				<custom offset="48507908" size="12"/>
			</blobs>
		</layer>
		<layer id="147" name="6650" precision="FP32" type="StridedSlice">
			<data begin_mask="0,0,1" ellipsis_mask="0,0,0" end_mask="0,0,1" new_axis_mask="0,0,0" shrink_axis_mask="0,0,0"/>
			<input>
				<port id="0">
					<dim>1</dim>
					<dim>15130</dim>
					<dim>2</dim>
				</port>
				<port id="1">
					<dim>3</dim>
				</port>
				<port id="2">
					<dim>3</dim>
				</port>
				<port id="3">
					<dim>3</dim>
				</port>
			</input>
			<output>
				<port id="4">
					<dim>1</dim>
					<dim>15130</dim>
					<dim>1</dim>
				</port>
			</output>
		</layer>
		<layer id="148" name="Squeeze_581/Dims/Output_0/Data__const" precision="I32" type="Const">
			<output>
				<port id="1">
					<dim>1</dim>
				</port>
			</output>
			<blobs>
				<custom offset="48628984" size="4"/>
			</blobs>
		</layer>
		<layer id="149" name="Squeeze_581" precision="FP32" type="Squeeze">
			<input>
				<port id="0">
					<dim>1</dim>
					<dim>15130</dim>
					<dim>1</dim>
				</port>
				<port id="1">
					<dim>1</dim>
				</port>
			</input>
			<output>
				<port id="2">
					<dim>1</dim>
					<dim>15130</dim>
				</port>
			</output>
		</layer>
		<layer id="150" name="Mul_583/Fused_Mul_" precision="FP32" type="Power">
			<data power="1" scale="-0.5" shift="0"/>
			<input>
				<port id="0">
					<dim>1</dim>
					<dim>15130</dim>
				</port>
			</input>
			<output>
				<port id="1">
					<dim>1</dim>
					<dim>15130</dim>
				</port>
			</output>
		</layer>
		<layer id="151" name="68156819_const" precision="I32" type="Const">
			<output>
				<port id="1">
					<dim>3</dim>
				</port>
			</output>
			<blobs>
				<custom offset="48628972" size="12"/>
			</blobs>
		</layer>
		<layer id="152" name="68166820_const" precision="I32" type="Const">
			<output>
				<port id="1">
					<dim>3</dim>
				</port>
			</output>
			<blobs>
				<custom offset="48507884" size="12"/>
			</blobs>
		</layer>
		<layer id="153" name="68176821_const" precision="I32" type="Const">
			<output>
				<port id="1">
					<dim>3</dim>
				</port>
			</output>
			<blobs>
				<custom offset="48507908" size="12"/>
			</blobs>
		</layer>
		<layer id="154" name="6818" precision="FP32" type="StridedSlice">
			<data begin_mask="0,0,1" ellipsis_mask="0,0,0" end_mask="0,0,1" new_axis_mask="0,0,0" shrink_axis_mask="0,0,0"/>
			<input>
				<port id="0">
					<dim>1</dim>
					<dim>15130</dim>
					<dim>2</dim>
				</port>
				<port id="1">
					<dim>3</dim>
				</port>
				<port id="2">
					<dim>3</dim>
				</port>
				<port id="3">
					<dim>3</dim>
				</port>
			</input>
			<output>
				<port id="4">
					<dim>1</dim>
					<dim>15130</dim>
					<dim>1</dim>
				</port>
			</output>
		</layer>
		<layer id="155" name="Squeeze_565/Dims/Output_0/Data__const" precision="I32" type="Const">
			<output>
				<port id="1">
					<dim>1</dim>
				</port>
			</output>
			<blobs>
				<custom offset="48628984" size="4"/>
			</blobs>
		</layer>
		<layer id="156" name="Squeeze_565" precision="FP32" type="Squeeze">
			<input>
				<port id="0">
					<dim>1</dim>
					<dim>15130</dim>
					<dim>1</dim>
				</port>
				<port id="1">
					<dim>1</dim>
				</port>
			</input>
			<output>
				<port id="2">
					<dim>1</dim>
					<dim>15130</dim>
				</port>
			</output>
		</layer>
		<layer id="157" name="Sub_584/add_" precision="FP32" type="Eltwise">
			<data operation="sum"/>
			<input>
				<port id="0">
					<dim>1</dim>
					<dim>15130</dim>
				</port>
				<port id="1">
					<dim>1</dim>
					<dim>15130</dim>
				</port>
			</input>
			<output>
				<port id="2">
					<dim>1</dim>
					<dim>15130</dim>
				</port>
			</output>
		</layer>
		<layer id="158" name="Unsqueeze_656/Dims/Output_0/Data__const" precision="I32" type="Const">
			<output>
				<port id="1">
					<dim>1</dim>
				</port>
			</output>
			<blobs>
				<custom offset="48628984" size="4"/>
			</blobs>
		</layer>
		<layer id="159" name="Unsqueeze_656825" precision="FP32" type="Unsqueeze">
			<input>
				<port id="0">
					<dim>1</dim>
					<dim>15130</dim>
				</port>
				<port id="1">
					<dim>1</dim>
				</port>
			</input>
			<output>
				<port id="2">
					<dim>1</dim>
					<dim>15130</dim>
					<dim>1</dim>
				</port>
			</output>
		</layer>
		<layer id="160" name="Squeeze_600/Dims/Output_0/Data__const" precision="I32" type="Const">
			<output>
				<port id="1">
					<dim>1</dim>
				</port>
			</output>
			<blobs>
				<custom offset="48628984" size="4"/>
			</blobs>
		</layer>
		<layer id="161" name="Squeeze_600" precision="FP32" type="Squeeze">
			<input>
				<port id="0">
					<dim>1</dim>
					<dim>15130</dim>
					<dim>1</dim>
				</port>
				<port id="1">
					<dim>1</dim>
				</port>
			</input>
			<output>
				<port id="2">
					<dim>1</dim>
					<dim>15130</dim>
				</port>
			</output>
		</layer>
		<layer id="162" name="Squeeze_616/Dims/Output_0/Data__const" precision="I32" type="Const">
			<output>
				<port id="1">
					<dim>1</dim>
				</port>
			</output>
			<blobs>
				<custom offset="48628984" size="4"/>
			</blobs>
		</layer>
		<layer id="163" name="Squeeze_616" precision="FP32" type="Squeeze">
			<input>
				<port id="0">
					<dim>1</dim>
					<dim>15130</dim>
					<dim>1</dim>
				</port>
				<port id="1">
					<dim>1</dim>
				</port>
			</input>
			<output>
				<port id="2">
					<dim>1</dim>
					<dim>15130</dim>
				</port>
			</output>
		</layer>
		<layer id="164" name="Mul_618" precision="FP32" type="Power">
			<data power="1" scale="0.5" shift="0"/>
			<input>
				<port id="0">
					<dim>1</dim>
					<dim>15130</dim>
				</port>
			</input>
			<output>
				<port id="1">
					<dim>1</dim>
					<dim>15130</dim>
				</port>
			</output>
		</layer>
		<layer id="165" name="Add_619" precision="FP32" type="Eltwise">
			<data operation="sum"/>
			<input>
				<port id="0">
					<dim>1</dim>
					<dim>15130</dim>
				</port>
				<port id="1">
					<dim>1</dim>
					<dim>15130</dim>
				</port>
			</input>
			<output>
				<port id="2">
					<dim>1</dim>
					<dim>15130</dim>
				</port>
			</output>
		</layer>
		<layer id="166" name="Unsqueeze_657/Dims/Output_0/Data__const" precision="I32" type="Const">
			<output>
				<port id="1">
					<dim>1</dim>
				</port>
			</output>
			<blobs>
				<custom offset="48628984" size="4"/>
			</blobs>
		</layer>
		<layer id="167" name="Unsqueeze_657827" precision="FP32" type="Unsqueeze">
			<input>
				<port id="0">
					<dim>1</dim>
					<dim>15130</dim>
				</port>
				<port id="1">
					<dim>1</dim>
				</port>
			</input>
			<output>
				<port id="2">
					<dim>1</dim>
					<dim>15130</dim>
					<dim>1</dim>
				</port>
			</output>
		</layer>
		<layer id="168" name="66796683_const" precision="I32" type="Const">
			<output>
				<port id="1">
					<dim>3</dim>
				</port>
			</output>
			<blobs>
				<custom offset="48628972" size="12"/>
			</blobs>
		</layer>
		<layer id="169" name="66806684_const" precision="I32" type="Const">
			<output>
				<port id="1">
					<dim>3</dim>
				</port>
			</output>
			<blobs>
				<custom offset="48507884" size="12"/>
			</blobs>
		</layer>
		<layer id="170" name="66816685_const" precision="I32" type="Const">
			<output>
				<port id="1">
					<dim>3</dim>
				</port>
			</output>
			<blobs>
				<custom offset="48507908" size="12"/>
			</blobs>
		</layer>
		<layer id="171" name="6682" precision="FP32" type="StridedSlice">
			<data begin_mask="0,0,1" ellipsis_mask="0,0,0" end_mask="0,0,1" new_axis_mask="0,0,0" shrink_axis_mask="0,0,0"/>
			<input>
				<port id="0">
					<dim>1</dim>
					<dim>15130</dim>
					<dim>2</dim>
				</port>
				<port id="1">
					<dim>3</dim>
				</port>
				<port id="2">
					<dim>3</dim>
				</port>
				<port id="3">
					<dim>3</dim>
				</port>
			</input>
			<output>
				<port id="4">
					<dim>1</dim>
					<dim>15130</dim>
					<dim>1</dim>
				</port>
			</output>
		</layer>
		<layer id="172" name="Squeeze_635/Dims/Output_0/Data__const" precision="I32" type="Const">
			<output>
				<port id="1">
					<dim>1</dim>
				</port>
			</output>
			<blobs>
				<custom offset="48628984" size="4"/>
			</blobs>
		</layer>
		<layer id="173" name="Squeeze_635" precision="FP32" type="Squeeze">
			<input>
				<port id="0">
					<dim>1</dim>
					<dim>15130</dim>
					<dim>1</dim>
				</port>
				<port id="1">
					<dim>1</dim>
				</port>
			</input>
			<output>
				<port id="2">
					<dim>1</dim>
					<dim>15130</dim>
				</port>
			</output>
		</layer>
		<layer id="174" name="66716675_const" precision="I32" type="Const">
			<output>
				<port id="1">
					<dim>3</dim>
				</port>
			</output>
			<blobs>
				<custom offset="48628972" size="12"/>
			</blobs>
		</layer>
		<layer id="175" name="66726676_const" precision="I32" type="Const">
			<output>
				<port id="1">
					<dim>3</dim>
				</port>
			</output>
			<blobs>
				<custom offset="48507884" size="12"/>
			</blobs>
		</layer>
		<layer id="176" name="66736677_const" precision="I32" type="Const">
			<output>
				<port id="1">
					<dim>3</dim>
				</port>
			</output>
			<blobs>
				<custom offset="48507908" size="12"/>
			</blobs>
		</layer>
		<layer id="177" name="6674" precision="FP32" type="StridedSlice">
			<data begin_mask="0,0,1" ellipsis_mask="0,0,0" end_mask="0,0,1" new_axis_mask="0,0,0" shrink_axis_mask="0,0,0"/>
			<input>
				<port id="0">
					<dim>1</dim>
					<dim>15130</dim>
					<dim>2</dim>
				</port>
				<port id="1">
					<dim>3</dim>
				</port>
				<port id="2">
					<dim>3</dim>
				</port>
				<port id="3">
					<dim>3</dim>
				</port>
			</input>
			<output>
				<port id="4">
					<dim>1</dim>
					<dim>15130</dim>
					<dim>1</dim>
				</port>
			</output>
		</layer>
		<layer id="178" name="Squeeze_651/Dims/Output_0/Data__const" precision="I32" type="Const">
			<output>
				<port id="1">
					<dim>1</dim>
				</port>
			</output>
			<blobs>
				<custom offset="48628984" size="4"/>
			</blobs>
		</layer>
		<layer id="179" name="Squeeze_651" precision="FP32" type="Squeeze">
			<input>
				<port id="0">
					<dim>1</dim>
					<dim>15130</dim>
					<dim>1</dim>
				</port>
				<port id="1">
					<dim>1</dim>
				</port>
			</input>
			<output>
				<port id="2">
					<dim>1</dim>
					<dim>15130</dim>
				</port>
			</output>
		</layer>
		<layer id="180" name="Mul_653" precision="FP32" type="Power">
			<data power="1" scale="0.5" shift="0"/>
			<input>
				<port id="0">
					<dim>1</dim>
					<dim>15130</dim>
				</port>
			</input>
			<output>
				<port id="1">
					<dim>1</dim>
					<dim>15130</dim>
				</port>
			</output>
		</layer>
		<layer id="181" name="Add_654" precision="FP32" type="Eltwise">
			<data operation="sum"/>
			<input>
				<port id="0">
					<dim>1</dim>
					<dim>15130</dim>
				</port>
				<port id="1">
					<dim>1</dim>
					<dim>15130</dim>
				</port>
			</input>
			<output>
				<port id="2">
					<dim>1</dim>
					<dim>15130</dim>
				</port>
			</output>
		</layer>
		<layer id="182" name="Unsqueeze_658/Dims/Output_0/Data__const" precision="I32" type="Const">
			<output>
				<port id="1">
					<dim>1</dim>
				</port>
			</output>
			<blobs>
				<custom offset="48628984" size="4"/>
			</blobs>
		</layer>
		<layer id="183" name="Unsqueeze_658829" precision="FP32" type="Unsqueeze">
			<input>
				<port id="0">
					<dim>1</dim>
					<dim>15130</dim>
				</port>
				<port id="1">
					<dim>1</dim>
				</port>
			</input>
			<output>
				<port id="2">
					<dim>1</dim>
					<dim>15130</dim>
					<dim>1</dim>
				</port>
			</output>
		</layer>
		<layer id="184" name="Concat_659" precision="FP32" type="Concat">
			<data axis="2"/>
			<input>
				<port id="0">
					<dim>1</dim>
					<dim>15130</dim>
					<dim>1</dim>
				</port>
				<port id="1">
					<dim>1</dim>
					<dim>15130</dim>
					<dim>1</dim>
				</port>
				<port id="2">
					<dim>1</dim>
					<dim>15130</dim>
					<dim>1</dim>
				</port>
				<port id="3">
					<dim>1</dim>
					<dim>15130</dim>
					<dim>1</dim>
				</port>
			</input>
			<output>
				<port id="4">
					<dim>1</dim>
					<dim>15130</dim>
					<dim>4</dim>
				</port>
			</output>
		</layer>
		<layer id="185" name="Conv_349" precision="FP32" type="Convolution">
			<data dilations="1,1" group="1" kernel="3,3" output="324" pads_begin="1,1" pads_end="1,1" strides="3,3"/>
			<input>
				<port id="0">
					<dim>1</dim>
					<dim>256</dim>
					<dim>150</dim>
					<dim>150</dim>
				</port>
			</input>
			<output>
				<port id="3">
					<dim>1</dim>
					<dim>324</dim>
					<dim>50</dim>
					<dim>50</dim>
				</port>
			</output>
			<blobs>
				<weights offset="48750028" size="2985984"/>
				<biases offset="51736012" size="1296"/>
			</blobs>
		</layer>
		<layer id="186" name="Concat_358/Output_0/Data__const" precision="I32" type="Const">
			<output>
				<port id="1">
					<dim>3</dim>
				</port>
			</output>
			<blobs>
				<custom offset="51737308" size="12"/>
			</blobs>
		</layer>
		<layer id="187" name="Reshape_359" precision="FP32" type="Reshape">
			<input>
				<port id="0">
					<dim>1</dim>
					<dim>324</dim>
					<dim>50</dim>
					<dim>50</dim>
				</port>
				<port id="1">
					<dim>3</dim>
				</port>
			</input>
			<output>
				<port id="2">
					<dim>1</dim>
					<dim>81</dim>
					<dim>10000</dim>
				</port>
			</output>
		</layer>
		<layer id="188" name="Conv_371" precision="FP32" type="Convolution">
			<data dilations="1,1" group="1" kernel="3,3" output="486" pads_begin="1,1" pads_end="1,1" strides="3,3"/>
			<input>
				<port id="0">
					<dim>1</dim>
					<dim>512</dim>
					<dim>75</dim>
					<dim>75</dim>
				</port>
			</input>
			<output>
				<port id="3">
					<dim>1</dim>
					<dim>486</dim>
					<dim>25</dim>
					<dim>25</dim>
				</port>
			</output>
			<blobs>
				<weights offset="51737320" size="8957952"/>
				<biases offset="60695272" size="1944"/>
			</blobs>
		</layer>
		<layer id="189" name="Concat_380/Output_0/Data__const" precision="I32" type="Const">
			<output>
				<port id="1">
					<dim>3</dim>
				</port>
			</output>
			<blobs>
				<custom offset="51737308" size="12"/>
			</blobs>
		</layer>
		<layer id="190" name="Reshape_381" precision="FP32" type="Reshape">
			<input>
				<port id="0">
					<dim>1</dim>
					<dim>486</dim>
					<dim>25</dim>
					<dim>25</dim>
				</port>
				<port id="1">
					<dim>3</dim>
				</port>
			</input>
			<output>
				<port id="2">
					<dim>1</dim>
					<dim>81</dim>
					<dim>3750</dim>
				</port>
			</output>
		</layer>
		<layer id="191" name="Conv_393" precision="FP32" type="Convolution">
			<data dilations="1,1" group="1" kernel="3,3" output="486" pads_begin="1,1" pads_end="1,1" strides="3,3"/>
			<input>
				<port id="0">
					<dim>1</dim>
					<dim>512</dim>
					<dim>38</dim>
					<dim>38</dim>
				</port>
			</input>
			<output>
				<port id="3">
					<dim>1</dim>
					<dim>486</dim>
					<dim>13</dim>
					<dim>13</dim>
				</port>
			</output>
			<blobs>
				<weights offset="60697216" size="8957952"/>
				<biases offset="69655168" size="1944"/>
			</blobs>
		</layer>
		<layer id="192" name="Concat_402/Output_0/Data__const" precision="I32" type="Const">
			<output>
				<port id="1">
					<dim>3</dim>
				</port>
			</output>
			<blobs>
				<custom offset="51737308" size="12"/>
			</blobs>
		</layer>
		<layer id="193" name="Reshape_403" precision="FP32" type="Reshape">
			<input>
				<port id="0">
					<dim>1</dim>
					<dim>486</dim>
					<dim>13</dim>
					<dim>13</dim>
				</port>
				<port id="1">
					<dim>3</dim>
				</port>
			</input>
			<output>
				<port id="2">
					<dim>1</dim>
					<dim>81</dim>
					<dim>1014</dim>
				</port>
			</output>
		</layer>
		<layer id="194" name="Conv_415" precision="FP32" type="Convolution">
			<data dilations="1,1" group="1" kernel="3,3" output="486" pads_begin="1,1" pads_end="1,1" strides="3,3"/>
			<input>
				<port id="0">
					<dim>1</dim>
					<dim>256</dim>
					<dim>19</dim>
					<dim>19</dim>
				</port>
			</input>
			<output>
				<port id="3">
					<dim>1</dim>
					<dim>486</dim>
					<dim>7</dim>
					<dim>7</dim>
				</port>
			</output>
			<blobs>
				<weights offset="69657112" size="4478976"/>
				<biases offset="74136088" size="1944"/>
			</blobs>
		</layer>
		<layer id="195" name="Concat_424/Output_0/Data__const" precision="I32" type="Const">
			<output>
				<port id="1">
					<dim>3</dim>
				</port>
			</output>
			<blobs>
				<custom offset="51737308" size="12"/>
			</blobs>
		</layer>
		<layer id="196" name="Reshape_425" precision="FP32" type="Reshape">
			<input>
				<port id="0">
					<dim>1</dim>
					<dim>486</dim>
					<dim>7</dim>
					<dim>7</dim>
				</port>
				<port id="1">
					<dim>3</dim>
				</port>
			</input>
			<output>
				<port id="2">
					<dim>1</dim>
					<dim>81</dim>
					<dim>294</dim>
				</port>
			</output>
		</layer>
		<layer id="197" name="Conv_437" precision="FP32" type="Convolution">
			<data dilations="1,1" group="1" kernel="3,3" output="324" pads_begin="1,1" pads_end="1,1" strides="3,3"/>
			<input>
				<port id="0">
					<dim>1</dim>
					<dim>256</dim>
					<dim>9</dim>
					<dim>9</dim>
				</port>
			</input>
			<output>
				<port id="3">
					<dim>1</dim>
					<dim>324</dim>
					<dim>3</dim>
					<dim>3</dim>
				</port>
			</output>
			<blobs>
				<weights offset="74138032" size="2985984"/>
				<biases offset="77124016" size="1296"/>
			</blobs>
		</layer>
		<layer id="198" name="Concat_446/Output_0/Data__const" precision="I32" type="Const">
			<output>
				<port id="1">
					<dim>3</dim>
				</port>
			</output>
			<blobs>
				<custom offset="51737308" size="12"/>
			</blobs>
		</layer>
		<layer id="199" name="Reshape_447" precision="FP32" type="Reshape">
			<input>
				<port id="0">
					<dim>1</dim>
					<dim>324</dim>
					<dim>3</dim>
					<dim>3</dim>
				</port>
				<port id="1">
					<dim>3</dim>
				</port>
			</input>
			<output>
				<port id="2">
					<dim>1</dim>
					<dim>81</dim>
					<dim>36</dim>
				</port>
			</output>
		</layer>
		<layer id="200" name="Conv_459" precision="FP32" type="Convolution">
			<data dilations="1,1" group="1" kernel="3,3" output="324" pads_begin="1,1" pads_end="1,1" strides="3,3"/>
			<input>
				<port id="0">
					<dim>1</dim>
					<dim>256</dim>
					<dim>7</dim>
					<dim>7</dim>
				</port>
			</input>
			<output>
				<port id="3">
					<dim>1</dim>
					<dim>324</dim>
					<dim>3</dim>
					<dim>3</dim>
				</port>
			</output>
			<blobs>
				<weights offset="77125312" size="2985984"/>
				<biases offset="80111296" size="1296"/>
			</blobs>
		</layer>
		<layer id="201" name="Concat_468/Output_0/Data__const" precision="I32" type="Const">
			<output>
				<port id="1">
					<dim>3</dim>
				</port>
			</output>
			<blobs>
				<custom offset="51737308" size="12"/>
			</blobs>
		</layer>
		<layer id="202" name="Reshape_469" precision="FP32" type="Reshape">
			<input>
				<port id="0">
					<dim>1</dim>
					<dim>324</dim>
					<dim>3</dim>
					<dim>3</dim>
				</port>
				<port id="1">
					<dim>3</dim>
				</port>
			</input>
			<output>
				<port id="2">
					<dim>1</dim>
					<dim>81</dim>
					<dim>36</dim>
				</port>
			</output>
		</layer>
		<layer id="203" name="Concat_471" precision="FP32" type="Concat">
			<data axis="2"/>
			<input>
				<port id="0">
					<dim>1</dim>
					<dim>81</dim>
					<dim>10000</dim>
				</port>
				<port id="1">
					<dim>1</dim>
					<dim>81</dim>
					<dim>3750</dim>
				</port>
				<port id="2">
					<dim>1</dim>
					<dim>81</dim>
					<dim>1014</dim>
				</port>
				<port id="3">
					<dim>1</dim>
					<dim>81</dim>
					<dim>294</dim>
				</port>
				<port id="4">
					<dim>1</dim>
					<dim>81</dim>
					<dim>36</dim>
				</port>
				<port id="5">
					<dim>1</dim>
					<dim>81</dim>
					<dim>36</dim>
				</port>
			</input>
			<output>
				<port id="6">
					<dim>1</dim>
					<dim>81</dim>
					<dim>15130</dim>
				</port>
			</output>
		</layer>
		<layer id="204" name="Transpose_473" precision="FP32" type="Permute">
			<data order="0,2,1"/>
			<input>
				<port id="0">
					<dim>1</dim>
					<dim>81</dim>
					<dim>15130</dim>
				</port>
			</input>
			<output>
				<port id="1">
					<dim>1</dim>
					<dim>15130</dim>
					<dim>81</dim>
				</port>
			</output>
		</layer>
		<layer id="205" name="Softmax_660" precision="FP32" type="SoftMax">
			<data axis="2"/>
			<input>
				<port id="0">
					<dim>1</dim>
					<dim>15130</dim>
					<dim>81</dim>
				</port>
			</input>
			<output>
				<port id="1">
					<dim>1</dim>
					<dim>15130</dim>
					<dim>81</dim>
				</port>
			</output>
		</layer>
		<layer id="206" name="Transpose_661" precision="FP32" type="Permute">
			<data order="0,2,1"/>
			<input>
				<port id="0">
					<dim>1</dim>
					<dim>15130</dim>
					<dim>81</dim>
				</port>
			</input>
			<output>
				<port id="1">
					<dim>1</dim>
					<dim>81</dim>
					<dim>15130</dim>
				</port>
			</output>
		</layer>
		<layer id="207" name="67036707_const" precision="I32" type="Const">
			<output>
				<port id="1">
					<dim>3</dim>
				</port>
			</output>
			<blobs>
				<custom offset="80112592" size="12"/>
			</blobs>
		</layer>
		<layer id="208" name="67046708_const" precision="I32" type="Const">
			<output>
				<port id="1">
					<dim>3</dim>
				</port>
			</output>
			<blobs>
				<custom offset="80112604" size="12"/>
			</blobs>
		</layer>
		<layer id="209" name="67056709_const" precision="I32" type="Const">
			<output>
				<port id="1">
					<dim>3</dim>
				</port>
			</output>
			<blobs>
				<custom offset="48507908" size="12"/>
			</blobs>
		</layer>
		<layer id="210" name="6706" precision="FP32" type="StridedSlice">
			<data begin_mask="0,1,0" ellipsis_mask="0,0,0" end_mask="0,1,0" new_axis_mask="0,0,0" shrink_axis_mask="0,0,0"/>
			<input>
				<port id="0">
					<dim>1</dim>
					<dim>81</dim>
					<dim>15130</dim>
				</port>
				<port id="1">
					<dim>3</dim>
				</port>
				<port id="2">
					<dim>3</dim>
				</port>
				<port id="3">
					<dim>3</dim>
				</port>
			</input>
			<output>
				<port id="4">
					<dim>1</dim>
					<dim>80</dim>
					<dim>15130</dim>
				</port>
			</output>
		</layer>
		<layer id="211" name="ConstantOfShape_678/Broadcast/Output_0/Data__const" precision="I32" type="Const">
			<output>
				<port id="1">
					<dim>1</dim>
				</port>
			</output>
			<blobs>
				<custom offset="80112616" size="4"/>
			</blobs>
		</layer>
		<layer id="212" name="ConstantOfShape_680/Broadcast/Output_0/Data__const" precision="FP32" type="Const">
			<output>
				<port id="1">
					<dim>1</dim>
				</port>
			</output>
			<blobs>
				<custom offset="80112620" size="4"/>
			</blobs>
		</layer>
		<layer id="213" name="ConstantOfShape_682/Broadcast/Output_0/Data__const" precision="FP32" type="Const">
			<output>
				<port id="1">
					<dim>1</dim>
				</port>
			</output>
			<blobs>
				<custom offset="80112624" size="4"/>
			</blobs>
		</layer>
		<layer id="214" name="NonMaxSuppression_683" precision="FP32" type="NonMaxSuppression">
			<data center_point_box="0"/>
			<input>
				<port id="0">
					<dim>1</dim>
					<dim>15130</dim>
					<dim>4</dim>
				</port>
				<port id="1">
					<dim>1</dim>
					<dim>80</dim>
					<dim>15130</dim>
				</port>
				<port id="2">
					<dim>1</dim>
				</port>
				<port id="3">
					<dim>1</dim>
				</port>
				<port id="4">
					<dim>1</dim>
				</port>
			</input>
			<output>
				<port id="5">
					<dim>1210400</dim>
					<dim>3</dim>
				</port>
			</output>
		</layer>
		<layer id="215" name="1276912770_const" precision="FP32" type="Const">
			<output>
				<port id="1">
					<dim>1</dim>
				</port>
			</output>
			<blobs>
				<custom offset="80112628" size="4"/>
			</blobs>
		</layer>
		<layer id="216" name="Gather_690" precision="FP32" type="Gather">
			<data axis="1"/>
			<input>
				<port id="0">
					<dim>1210400</dim>
					<dim>3</dim>
				</port>
				<port id="1">
					<dim>1</dim>
				</port>
			</input>
			<output>
				<port id="2">
					<dim>1210400</dim>
					<dim>1</dim>
				</port>
			</output>
		</layer>
		<layer id="217" name="Gather_690/Squeeze/axis12774_const" precision="I32" type="Const">
			<output>
				<port id="1">
					<dim>1</dim>
				</port>
			</output>
			<blobs>
				<custom offset="80112632" size="4"/>
			</blobs>
		</layer>
		<layer id="218" name="Gather_690/Squeeze" precision="FP32" type="Squeeze">
			<input>
				<port id="0">
					<dim>1210400</dim>
					<dim>1</dim>
				</port>
				<port id="1">
					<dim>1</dim>
				</port>
			</input>
			<output>
				<port id="2">
					<dim>1210400</dim>
				</port>
			</output>
		</layer>
		<layer id="219" name="Constant_698/Output_0/Data__const" precision="I32" type="Const">
			<output>
				<port id="1">
					<dim>1</dim>
				</port>
			</output>
			<blobs>
				<custom offset="80112636" size="4"/>
			</blobs>
		</layer>
		<layer id="220" name="Reshape_699" precision="FP32" type="Reshape">
			<input>
				<port id="0">
					<dim>1</dim>
					<dim>80</dim>
					<dim>15130</dim>
				</port>
				<port id="1">
					<dim>1</dim>
				</port>
			</input>
			<output>
				<port id="2">
					<dim>1210400</dim>
				</port>
			</output>
		</layer>
		<layer id="221" name="Mul_703" precision="FP32" type="Power">
			<data power="1" scale="15130" shift="0"/>
			<input>
				<port id="0">
					<dim>1210400</dim>
				</port>
			</input>
			<output>
				<port id="1">
					<dim>1210400</dim>
				</port>
			</output>
		</layer>
		<layer id="222" name="1277512776_const" precision="FP32" type="Const">
			<output>
				<port id="1">
					<dim>1</dim>
				</port>
			</output>
			<blobs>
				<custom offset="80112640" size="4"/>
			</blobs>
		</layer>
		<layer id="223" name="Gather_697" precision="FP32" type="Gather">
			<data axis="1"/>
			<input>
				<port id="0">
					<dim>1210400</dim>
					<dim>3</dim>
				</port>
				<port id="1">
					<dim>1</dim>
				</port>
			</input>
			<output>
				<port id="2">
					<dim>1210400</dim>
					<dim>1</dim>
				</port>
			</output>
		</layer>
		<layer id="224" name="Gather_697/Squeeze/axis12780_const" precision="I32" type="Const">
			<output>
				<port id="1">
					<dim>1</dim>
				</port>
			</output>
			<blobs>
				<custom offset="80112632" size="4"/>
			</blobs>
		</layer>
		<layer id="225" name="Gather_697/Squeeze" precision="FP32" type="Squeeze">
			<input>
				<port id="0">
					<dim>1210400</dim>
					<dim>1</dim>
				</port>
				<port id="1">
					<dim>1</dim>
				</port>
			</input>
			<output>
				<port id="2">
					<dim>1210400</dim>
				</port>
			</output>
		</layer>
		<layer id="226" name="Add_704" precision="FP32" type="Eltwise">
			<data operation="sum"/>
			<input>
				<port id="0">
					<dim>1210400</dim>
				</port>
				<port id="1">
					<dim>1210400</dim>
				</port>
			</input>
			<output>
				<port id="2">
					<dim>1210400</dim>
				</port>
			</output>
		</layer>
		<layer id="227" name="Gather_706" precision="FP32" type="Gather">
			<data axis="0"/>
			<input>
				<port id="0">
					<dim>1210400</dim>
				</port>
				<port id="1">
					<dim>1210400</dim>
				</port>
			</input>
			<output>
				<port id="2">
					<dim>1210400</dim>
				</port>
			</output>
		</layer>
		<layer id="228" name="Unsqueeze_716833/Output_0/Data__const" precision="I32" type="Const">
			<output>
				<port id="1">
					<dim>1</dim>
				</port>
			</output>
			<blobs>
				<custom offset="80112616" size="4"/>
			</blobs>
		</layer>
		<layer id="229" name="TopK_717" precision="FP32" type="TopK">
			<data axis="0" sort="value"/>
			<input>
				<port id="0">
					<dim>1210400</dim>
				</port>
				<port id="1">
					<dim>1</dim>
				</port>
			</input>
			<output>
				<port id="2">
					<dim>200</dim>
				</port>
				<port id="3">
					<dim>200</dim>
				</port>
			</output>
		</layer>
		<layer id="230" name="Gather_729" precision="FP32" type="Gather">
			<data axis="0"/>
			<input>
				<port id="0">
					<dim>1210400</dim>
				</port>
				<port id="1">
					<dim>200</dim>
				</port>
			</input>
			<output>
				<port id="2">
					<dim>200</dim>
				</port>
			</output>
		</layer>
		<layer id="231" name="Unsqueeze_730/Dims/Output_0/Data__const" precision="I32" type="Const">
			<output>
				<port id="1">
					<dim>1</dim>
				</port>
			</output>
			<blobs>
				<custom offset="80112644" size="4"/>
			</blobs>
		</layer>
		<layer id="232" name="Unsqueeze_730837" precision="FP32" type="Unsqueeze">
			<input>
				<port id="0">
					<dim>200</dim>
				</port>
				<port id="1">
					<dim>1</dim>
				</port>
			</input>
			<output>
				<port id="2">
					<dim>1</dim>
					<dim>200</dim>
				</port>
			</output>
		</layer>
		<layer id="233" name="Add_labels" precision="FP32" type="Power">
			<data power="1" scale="1" shift="1"/>
			<input>
				<port id="0">
					<dim>1</dim>
					<dim>200</dim>
				</port>
			</input>
			<output>
				<port id="1">
					<dim>1</dim>
					<dim>200</dim>
				</port>
			</output>
		</layer>
		<layer id="234" name="Squeeze_719/Dims/Output_0/Data__const" precision="I32" type="Const">
			<output>
				<port id="1">
					<dim>1</dim>
				</port>
			</output>
			<blobs>
				<custom offset="80112644" size="4"/>
			</blobs>
		</layer>
		<layer id="235" name="Squeeze_719" precision="FP32" type="Squeeze">
			<input>
				<port id="0">
					<dim>1</dim>
					<dim>15130</dim>
					<dim>4</dim>
				</port>
				<port id="1">
					<dim>1</dim>
				</port>
			</input>
			<output>
				<port id="2">
					<dim>15130</dim>
					<dim>4</dim>
				</port>
			</output>
		</layer>
		<layer id="236" name="Gather_720" precision="FP32" type="Gather">
			<data axis="0"/>
			<input>
				<port id="0">
					<dim>1210400</dim>
				</port>
				<port id="1">
					<dim>200</dim>
				</port>
			</input>
			<output>
				<port id="2">
					<dim>200</dim>
				</port>
			</output>
		</layer>
		<layer id="237" name="Gather_727" precision="FP32" type="Gather">
			<data axis="0"/>
			<input>
				<port id="0">
					<dim>15130</dim>
					<dim>4</dim>
				</port>
				<port id="1">
					<dim>200</dim>
				</port>
			</input>
			<output>
				<port id="2">
					<dim>200</dim>
					<dim>4</dim>
				</port>
			</output>
		</layer>
		<layer id="238" name="Unsqueeze_bboxes/Dims/Output_0/Data__const" precision="I32" type="Const">
			<output>
				<port id="1">
					<dim>1</dim>
				</port>
			</output>
			<blobs>
				<custom offset="80112644" size="4"/>
			</blobs>
		</layer>
		<layer id="239" name="Unsqueeze_bboxes835" precision="FP32" type="Unsqueeze">
			<input>
				<port id="0">
					<dim>200</dim>
					<dim>4</dim>
				</port>
				<port id="1">
					<dim>1</dim>
				</port>
			</input>
			<output>
				<port id="2">
					<dim>1</dim>
					<dim>200</dim>
					<dim>4</dim>
				</port>
			</output>
		</layer>
		<layer id="240" name="Gather_733" precision="FP32" type="Gather">
			<data axis="0"/>
			<input>
				<port id="0">
					<dim>1210400</dim>
				</port>
				<port id="1">
					<dim>200</dim>
				</port>
			</input>
			<output>
				<port id="2">
					<dim>200</dim>
				</port>
			</output>
		</layer>
		<layer id="241" name="Unsqueeze_scores/Dims/Output_0/Data__const" precision="I32" type="Const">
			<output>
				<port id="1">
					<dim>1</dim>
				</port>
			</output>
			<blobs>
				<custom offset="80112644" size="4"/>
			</blobs>
		</layer>
		<layer id="242" name="Unsqueeze_scores839" precision="FP32" type="Unsqueeze">
			<input>
				<port id="0">
					<dim>200</dim>
				</port>
				<port id="1">
					<dim>1</dim>
				</port>
			</input>
			<output>
				<port id="2">
					<dim>1</dim>
					<dim>200</dim>
				</port>
			</output>
		</layer>
	</layers>
	<edges>
		<edge from-layer="0" from-port="0" to-layer="1" to-port="0"/>
		<edge from-layer="1" from-port="3" to-layer="2" to-port="0"/>
		<edge from-layer="2" from-port="1" to-layer="3" to-port="0"/>
		<edge from-layer="3" from-port="1" to-layer="4" to-port="0"/>
		<edge from-layer="4" from-port="3" to-layer="5" to-port="0"/>
		<edge from-layer="5" from-port="1" to-layer="6" to-port="0"/>
		<edge from-layer="6" from-port="3" to-layer="7" to-port="0"/>
		<edge from-layer="3" from-port="1" to-layer="7" to-port="1"/>
		<edge from-layer="7" from-port="2" to-layer="8" to-port="0"/>
		<edge from-layer="8" from-port="1" to-layer="9" to-port="0"/>
		<edge from-layer="9" from-port="3" to-layer="10" to-port="0"/>
		<edge from-layer="10" from-port="1" to-layer="11" to-port="0"/>
		<edge from-layer="11" from-port="3" to-layer="12" to-port="0"/>
		<edge from-layer="8" from-port="1" to-layer="12" to-port="1"/>
		<edge from-layer="12" from-port="2" to-layer="13" to-port="0"/>
		<edge from-layer="13" from-port="1" to-layer="14" to-port="0"/>
		<edge from-layer="14" from-port="3" to-layer="15" to-port="0"/>
		<edge from-layer="15" from-port="1" to-layer="16" to-port="0"/>
		<edge from-layer="16" from-port="3" to-layer="17" to-port="0"/>
		<edge from-layer="13" from-port="1" to-layer="17" to-port="1"/>
		<edge from-layer="17" from-port="2" to-layer="18" to-port="0"/>
		<edge from-layer="18" from-port="1" to-layer="19" to-port="0"/>
		<edge from-layer="19" from-port="3" to-layer="20" to-port="0"/>
		<edge from-layer="20" from-port="1" to-layer="21" to-port="0"/>
		<edge from-layer="18" from-port="1" to-layer="22" to-port="0"/>
		<edge from-layer="21" from-port="3" to-layer="23" to-port="0"/>
		<edge from-layer="22" from-port="3" to-layer="23" to-port="1"/>
		<edge from-layer="23" from-port="2" to-layer="24" to-port="0"/>
		<edge from-layer="24" from-port="1" to-layer="25" to-port="0"/>
		<edge from-layer="25" from-port="3" to-layer="26" to-port="0"/>
		<edge from-layer="26" from-port="1" to-layer="27" to-port="0"/>
		<edge from-layer="27" from-port="3" to-layer="28" to-port="0"/>
		<edge from-layer="24" from-port="1" to-layer="28" to-port="1"/>
		<edge from-layer="28" from-port="2" to-layer="29" to-port="0"/>
		<edge from-layer="29" from-port="1" to-layer="30" to-port="0"/>
		<edge from-layer="30" from-port="3" to-layer="31" to-port="0"/>
		<edge from-layer="31" from-port="1" to-layer="32" to-port="0"/>
		<edge from-layer="32" from-port="3" to-layer="33" to-port="0"/>
		<edge from-layer="29" from-port="1" to-layer="33" to-port="1"/>
		<edge from-layer="33" from-port="2" to-layer="34" to-port="0"/>
		<edge from-layer="34" from-port="1" to-layer="35" to-port="0"/>
		<edge from-layer="35" from-port="3" to-layer="36" to-port="0"/>
		<edge from-layer="36" from-port="1" to-layer="37" to-port="0"/>
		<edge from-layer="37" from-port="3" to-layer="38" to-port="0"/>
		<edge from-layer="34" from-port="1" to-layer="38" to-port="1"/>
		<edge from-layer="38" from-port="2" to-layer="39" to-port="0"/>
		<edge from-layer="39" from-port="1" to-layer="40" to-port="0"/>
		<edge from-layer="40" from-port="3" to-layer="41" to-port="0"/>
		<edge from-layer="41" from-port="1" to-layer="42" to-port="0"/>
		<edge from-layer="39" from-port="1" to-layer="43" to-port="0"/>
		<edge from-layer="42" from-port="3" to-layer="44" to-port="0"/>
		<edge from-layer="43" from-port="3" to-layer="44" to-port="1"/>
		<edge from-layer="44" from-port="2" to-layer="45" to-port="0"/>
		<edge from-layer="45" from-port="1" to-layer="46" to-port="0"/>
		<edge from-layer="46" from-port="3" to-layer="47" to-port="0"/>
		<edge from-layer="47" from-port="1" to-layer="48" to-port="0"/>
		<edge from-layer="48" from-port="3" to-layer="49" to-port="0"/>
		<edge from-layer="45" from-port="1" to-layer="49" to-port="1"/>
		<edge from-layer="49" from-port="2" to-layer="50" to-port="0"/>
		<edge from-layer="50" from-port="1" to-layer="51" to-port="0"/>
		<edge from-layer="51" from-port="3" to-layer="52" to-port="0"/>
		<edge from-layer="52" from-port="1" to-layer="53" to-port="0"/>
		<edge from-layer="53" from-port="3" to-layer="54" to-port="0"/>
		<edge from-layer="50" from-port="1" to-layer="54" to-port="1"/>
		<edge from-layer="54" from-port="2" to-layer="55" to-port="0"/>
		<edge from-layer="55" from-port="1" to-layer="56" to-port="0"/>
		<edge from-layer="56" from-port="3" to-layer="57" to-port="0"/>
		<edge from-layer="57" from-port="1" to-layer="58" to-port="0"/>
		<edge from-layer="58" from-port="3" to-layer="59" to-port="0"/>
		<edge from-layer="55" from-port="1" to-layer="59" to-port="1"/>
		<edge from-layer="59" from-port="2" to-layer="60" to-port="0"/>
		<edge from-layer="60" from-port="1" to-layer="61" to-port="0"/>
		<edge from-layer="61" from-port="3" to-layer="62" to-port="0"/>
		<edge from-layer="62" from-port="1" to-layer="63" to-port="0"/>
		<edge from-layer="63" from-port="3" to-layer="64" to-port="0"/>
		<edge from-layer="60" from-port="1" to-layer="64" to-port="1"/>
		<edge from-layer="64" from-port="2" to-layer="65" to-port="0"/>
		<edge from-layer="65" from-port="1" to-layer="66" to-port="0"/>
		<edge from-layer="66" from-port="3" to-layer="67" to-port="0"/>
		<edge from-layer="67" from-port="1" to-layer="68" to-port="0"/>
		<edge from-layer="68" from-port="3" to-layer="69" to-port="0"/>
		<edge from-layer="65" from-port="1" to-layer="69" to-port="1"/>
		<edge from-layer="69" from-port="2" to-layer="70" to-port="0"/>
		<edge from-layer="70" from-port="1" to-layer="71" to-port="0"/>
		<edge from-layer="71" from-port="3" to-layer="73" to-port="0"/>
		<edge from-layer="72" from-port="1" to-layer="73" to-port="1"/>
		<edge from-layer="70" from-port="1" to-layer="74" to-port="0"/>
		<edge from-layer="74" from-port="3" to-layer="75" to-port="0"/>
		<edge from-layer="75" from-port="1" to-layer="76" to-port="0"/>
		<edge from-layer="76" from-port="3" to-layer="77" to-port="0"/>
		<edge from-layer="77" from-port="1" to-layer="78" to-port="0"/>
		<edge from-layer="78" from-port="3" to-layer="80" to-port="0"/>
		<edge from-layer="79" from-port="1" to-layer="80" to-port="1"/>
		<edge from-layer="77" from-port="1" to-layer="81" to-port="0"/>
		<edge from-layer="81" from-port="3" to-layer="82" to-port="0"/>
		<edge from-layer="82" from-port="1" to-layer="83" to-port="0"/>
		<edge from-layer="83" from-port="3" to-layer="84" to-port="0"/>
		<edge from-layer="84" from-port="1" to-layer="85" to-port="0"/>
		<edge from-layer="85" from-port="3" to-layer="87" to-port="0"/>
		<edge from-layer="86" from-port="1" to-layer="87" to-port="1"/>
		<edge from-layer="84" from-port="1" to-layer="88" to-port="0"/>
		<edge from-layer="88" from-port="3" to-layer="89" to-port="0"/>
		<edge from-layer="89" from-port="1" to-layer="90" to-port="0"/>
		<edge from-layer="90" from-port="3" to-layer="91" to-port="0"/>
		<edge from-layer="91" from-port="1" to-layer="92" to-port="0"/>
		<edge from-layer="92" from-port="3" to-layer="94" to-port="0"/>
		<edge from-layer="93" from-port="1" to-layer="94" to-port="1"/>
		<edge from-layer="91" from-port="1" to-layer="95" to-port="0"/>
		<edge from-layer="95" from-port="3" to-layer="96" to-port="0"/>
		<edge from-layer="96" from-port="1" to-layer="97" to-port="0"/>
		<edge from-layer="97" from-port="3" to-layer="98" to-port="0"/>
		<edge from-layer="98" from-port="1" to-layer="99" to-port="0"/>
		<edge from-layer="99" from-port="3" to-layer="101" to-port="0"/>
		<edge from-layer="100" from-port="1" to-layer="101" to-port="1"/>
		<edge from-layer="98" from-port="1" to-layer="102" to-port="0"/>
		<edge from-layer="102" from-port="3" to-layer="103" to-port="0"/>
		<edge from-layer="103" from-port="1" to-layer="104" to-port="0"/>
		<edge from-layer="104" from-port="3" to-layer="105" to-port="0"/>
		<edge from-layer="105" from-port="1" to-layer="106" to-port="0"/>
		<edge from-layer="106" from-port="3" to-layer="108" to-port="0"/>
		<edge from-layer="107" from-port="1" to-layer="108" to-port="1"/>
		<edge from-layer="73" from-port="2" to-layer="109" to-port="0"/>
		<edge from-layer="80" from-port="2" to-layer="109" to-port="1"/>
		<edge from-layer="87" from-port="2" to-layer="109" to-port="2"/>
		<edge from-layer="94" from-port="2" to-layer="109" to-port="3"/>
		<edge from-layer="101" from-port="2" to-layer="109" to-port="4"/>
		<edge from-layer="108" from-port="2" to-layer="109" to-port="5"/>
		<edge from-layer="109" from-port="6" to-layer="110" to-port="0"/>
		<edge from-layer="110" from-port="1" to-layer="114" to-port="0"/>
		<edge from-layer="111" from-port="1" to-layer="114" to-port="1"/>
		<edge from-layer="112" from-port="1" to-layer="114" to-port="2"/>
		<edge from-layer="113" from-port="1" to-layer="114" to-port="3"/>
		<edge from-layer="114" from-port="4" to-layer="115" to-port="0"/>
		<edge from-layer="115" from-port="1" to-layer="116" to-port="0"/>
		<edge from-layer="116" from-port="1" to-layer="118" to-port="0"/>
		<edge from-layer="117" from-port="1" to-layer="118" to-port="1"/>
		<edge from-layer="118" from-port="2" to-layer="122" to-port="0"/>
		<edge from-layer="119" from-port="1" to-layer="122" to-port="1"/>
		<edge from-layer="120" from-port="1" to-layer="122" to-port="2"/>
		<edge from-layer="121" from-port="1" to-layer="122" to-port="3"/>
		<edge from-layer="122" from-port="4" to-layer="124" to-port="0"/>
		<edge from-layer="123" from-port="1" to-layer="124" to-port="1"/>
		<edge from-layer="124" from-port="2" to-layer="125" to-port="0"/>
		<edge from-layer="110" from-port="1" to-layer="129" to-port="0"/>
		<edge from-layer="126" from-port="1" to-layer="129" to-port="1"/>
		<edge from-layer="127" from-port="1" to-layer="129" to-port="2"/>
		<edge from-layer="128" from-port="1" to-layer="129" to-port="3"/>
		<edge from-layer="129" from-port="4" to-layer="130" to-port="0"/>
		<edge from-layer="130" from-port="1" to-layer="132" to-port="0"/>
		<edge from-layer="131" from-port="1" to-layer="132" to-port="1"/>
		<edge from-layer="132" from-port="2" to-layer="134" to-port="0"/>
		<edge from-layer="133" from-port="1" to-layer="134" to-port="1"/>
		<edge from-layer="134" from-port="2" to-layer="138" to-port="0"/>
		<edge from-layer="135" from-port="1" to-layer="138" to-port="1"/>
		<edge from-layer="136" from-port="1" to-layer="138" to-port="2"/>
		<edge from-layer="137" from-port="1" to-layer="138" to-port="3"/>
		<edge from-layer="138" from-port="4" to-layer="140" to-port="0"/>
		<edge from-layer="139" from-port="1" to-layer="140" to-port="1"/>
		<edge from-layer="125" from-port="1" to-layer="141" to-port="0"/>
		<edge from-layer="140" from-port="2" to-layer="141" to-port="1"/>
		<edge from-layer="141" from-port="2" to-layer="143" to-port="0"/>
		<edge from-layer="142" from-port="1" to-layer="143" to-port="1"/>
		<edge from-layer="118" from-port="2" to-layer="147" to-port="0"/>
		<edge from-layer="144" from-port="1" to-layer="147" to-port="1"/>
		<edge from-layer="145" from-port="1" to-layer="147" to-port="2"/>
		<edge from-layer="146" from-port="1" to-layer="147" to-port="3"/>
		<edge from-layer="147" from-port="4" to-layer="149" to-port="0"/>
		<edge from-layer="148" from-port="1" to-layer="149" to-port="1"/>
		<edge from-layer="149" from-port="2" to-layer="150" to-port="0"/>
		<edge from-layer="134" from-port="2" to-layer="154" to-port="0"/>
		<edge from-layer="151" from-port="1" to-layer="154" to-port="1"/>
		<edge from-layer="152" from-port="1" to-layer="154" to-port="2"/>
		<edge from-layer="153" from-port="1" to-layer="154" to-port="3"/>
		<edge from-layer="154" from-port="4" to-layer="156" to-port="0"/>
		<edge from-layer="155" from-port="1" to-layer="156" to-port="1"/>
		<edge from-layer="150" from-port="1" to-layer="157" to-port="0"/>
		<edge from-layer="156" from-port="2" to-layer="157" to-port="1"/>
		<edge from-layer="157" from-port="2" to-layer="159" to-port="0"/>
		<edge from-layer="158" from-port="1" to-layer="159" to-port="1"/>
		<edge from-layer="138" from-port="4" to-layer="161" to-port="0"/>
		<edge from-layer="160" from-port="1" to-layer="161" to-port="1"/>
		<edge from-layer="122" from-port="4" to-layer="163" to-port="0"/>
		<edge from-layer="162" from-port="1" to-layer="163" to-port="1"/>
		<edge from-layer="163" from-port="2" to-layer="164" to-port="0"/>
		<edge from-layer="161" from-port="2" to-layer="165" to-port="0"/>
		<edge from-layer="164" from-port="1" to-layer="165" to-port="1"/>
		<edge from-layer="165" from-port="2" to-layer="167" to-port="0"/>
		<edge from-layer="166" from-port="1" to-layer="167" to-port="1"/>
		<edge from-layer="134" from-port="2" to-layer="171" to-port="0"/>
		<edge from-layer="168" from-port="1" to-layer="171" to-port="1"/>
		<edge from-layer="169" from-port="1" to-layer="171" to-port="2"/>
		<edge from-layer="170" from-port="1" to-layer="171" to-port="3"/>
		<edge from-layer="171" from-port="4" to-layer="173" to-port="0"/>
		<edge from-layer="172" from-port="1" to-layer="173" to-port="1"/>
		<edge from-layer="118" from-port="2" to-layer="177" to-port="0"/>
		<edge from-layer="174" from-port="1" to-layer="177" to-port="1"/>
		<edge from-layer="175" from-port="1" to-layer="177" to-port="2"/>
		<edge from-layer="176" from-port="1" to-layer="177" to-port="3"/>
		<edge from-layer="177" from-port="4" to-layer="179" to-port="0"/>
		<edge from-layer="178" from-port="1" to-layer="179" to-port="1"/>
		<edge from-layer="179" from-port="2" to-layer="180" to-port="0"/>
		<edge from-layer="173" from-port="2" to-layer="181" to-port="0"/>
		<edge from-layer="180" from-port="1" to-layer="181" to-port="1"/>
		<edge from-layer="181" from-port="2" to-layer="183" to-port="0"/>
		<edge from-layer="182" from-port="1" to-layer="183" to-port="1"/>
		<edge from-layer="143" from-port="2" to-layer="184" to-port="0"/>
		<edge from-layer="159" from-port="2" to-layer="184" to-port="1"/>
		<edge from-layer="167" from-port="2" to-layer="184" to-port="2"/>
		<edge from-layer="183" from-port="2" to-layer="184" to-port="3"/>
		<edge from-layer="70" from-port="1" to-layer="185" to-port="0"/>
		<edge from-layer="185" from-port="3" to-layer="187" to-port="0"/>
		<edge from-layer="186" from-port="1" to-layer="187" to-port="1"/>
		<edge from-layer="77" from-port="1" to-layer="188" to-port="0"/>
		<edge from-layer="188" from-port="3" to-layer="190" to-port="0"/>
		<edge from-layer="189" from-port="1" to-layer="190" to-port="1"/>
		<edge from-layer="84" from-port="1" to-layer="191" to-port="0"/>
		<edge from-layer="191" from-port="3" to-layer="193" to-port="0"/>
		<edge from-layer="192" from-port="1" to-layer="193" to-port="1"/>
		<edge from-layer="91" from-port="1" to-layer="194" to-port="0"/>
		<edge from-layer="194" from-port="3" to-layer="196" to-port="0"/>
		<edge from-layer="195" from-port="1" to-layer="196" to-port="1"/>
		<edge from-layer="98" from-port="1" to-layer="197" to-port="0"/>
		<edge from-layer="197" from-port="3" to-layer="199" to-port="0"/>
		<edge from-layer="198" from-port="1" to-layer="199" to-port="1"/>
		<edge from-layer="105" from-port="1" to-layer="200" to-port="0"/>
		<edge from-layer="200" from-port="3" to-layer="202" to-port="0"/>
		<edge from-layer="201" from-port="1" to-layer="202" to-port="1"/>
		<edge from-layer="187" from-port="2" to-layer="203" to-port="0"/>
		<edge from-layer="190" from-port="2" to-layer="203" to-port="1"/>
		<edge from-layer="193" from-port="2" to-layer="203" to-port="2"/>
		<edge from-layer="196" from-port="2" to-layer="203" to-port="3"/>
		<edge from-layer="199" from-port="2" to-layer="203" to-port="4"/>
		<edge from-layer="202" from-port="2" to-layer="203" to-port="5"/>
		<edge from-layer="203" from-port="6" to-layer="204" to-port="0"/>
		<edge from-layer="204" from-port="1" to-layer="205" to-port="0"/>
		<edge from-layer="205" from-port="1" to-layer="206" to-port="0"/>
		<edge from-layer="206" from-port="1" to-layer="210" to-port="0"/>
		<edge from-layer="207" from-port="1" to-layer="210" to-port="1"/>
		<edge from-layer="208" from-port="1" to-layer="210" to-port="2"/>
		<edge from-layer="209" from-port="1" to-layer="210" to-port="3"/>
		<edge from-layer="184" from-port="4" to-layer="214" to-port="0"/>
		<edge from-layer="210" from-port="4" to-layer="214" to-port="1"/>
		<edge from-layer="211" from-port="1" to-layer="214" to-port="2"/>
		<edge from-layer="212" from-port="1" to-layer="214" to-port="3"/>
		<edge from-layer="213" from-port="1" to-layer="214" to-port="4"/>
		<edge from-layer="214" from-port="5" to-layer="216" to-port="0"/>
		<edge from-layer="215" from-port="1" to-layer="216" to-port="1"/>
		<edge from-layer="216" from-port="2" to-layer="218" to-port="0"/>
		<edge from-layer="217" from-port="1" to-layer="218" to-port="1"/>
		<edge from-layer="210" from-port="4" to-layer="220" to-port="0"/>
		<edge from-layer="219" from-port="1" to-layer="220" to-port="1"/>
		<edge from-layer="218" from-port="2" to-layer="221" to-port="0"/>
		<edge from-layer="214" from-port="5" to-layer="223" to-port="0"/>
		<edge from-layer="222" from-port="1" to-layer="223" to-port="1"/>
		<edge from-layer="223" from-port="2" to-layer="225" to-port="0"/>
		<edge from-layer="224" from-port="1" to-layer="225" to-port="1"/>
		<edge from-layer="221" from-port="1" to-layer="226" to-port="0"/>
		<edge from-layer="225" from-port="2" to-layer="226" to-port="1"/>
		<edge from-layer="220" from-port="2" to-layer="227" to-port="0"/>
		<edge from-layer="226" from-port="2" to-layer="227" to-port="1"/>
		<edge from-layer="227" from-port="2" to-layer="229" to-port="0"/>
		<edge from-layer="228" from-port="1" to-layer="229" to-port="1"/>
		<edge from-layer="218" from-port="2" to-layer="230" to-port="0"/>
		<edge from-layer="229" from-port="3" to-layer="230" to-port="1"/>
		<edge from-layer="230" from-port="2" to-layer="232" to-port="0"/>
		<edge from-layer="231" from-port="1" to-layer="232" to-port="1"/>
		<edge from-layer="232" from-port="2" to-layer="233" to-port="0"/>
		<edge from-layer="184" from-port="4" to-layer="235" to-port="0"/>
		<edge from-layer="234" from-port="1" to-layer="235" to-port="1"/>
		<edge from-layer="225" from-port="2" to-layer="236" to-port="0"/>
		<edge from-layer="229" from-port="3" to-layer="236" to-port="1"/>
		<edge from-layer="235" from-port="2" to-layer="237" to-port="0"/>
		<edge from-layer="236" from-port="2" to-layer="237" to-port="1"/>
		<edge from-layer="237" from-port="2" to-layer="239" to-port="0"/>
		<edge from-layer="238" from-port="1" to-layer="239" to-port="1"/>
		<edge from-layer="227" from-port="2" to-layer="240" to-port="0"/>
		<edge from-layer="229" from-port="3" to-layer="240" to-port="1"/>
		<edge from-layer="240" from-port="2" to-layer="242" to-port="0"/>
		<edge from-layer="241" from-port="1" to-layer="242" to-port="1"/>
	</edges>
	<meta_data>
		<MO_version value="2019.3.0-408-gac8584cb7"/>
		<cli_parameters>
			<blobs_as_inputs value="False"/>
			<caffe_parser_path value="DIR"/>
			<data_type value="float"/>
			<disable_nhwc_to_nchw value="False"/>
			<disable_omitting_optional value="False"/>
			<disable_resnet_optimization value="False"/>
			<enable_concat_optimization value="False"/>
			<enable_flattening_nested_params value="False"/>
			<enable_ssd_gluoncv value="False"/>
			<extensions value="DIR"/>
			<framework value="onnx"/>
			<freeze_placeholder_with_value value="{}"/>
			<generate_experimental_IR_V10 value="False"/>
			<input_model value="DIR/ssd.onnx"/>
			<input_model_is_text value="False"/>
			<k value="DIR/CustomLayersMapping.xml"/>
			<keep_quantize_ops_in_IR value="False"/>
			<keep_shape_ops value="False"/>
			<legacy_mxnet_model value="False"/>
			<log_level value="ERROR"/>
			<mean_scale_values value="{}"/>
			<mean_values value="()"/>
			<move_to_preprocess value="False"/>
			<output_dir value="DIR"/>
			<remove_memory value="False"/>
			<remove_output_softmax value="False"/>
			<reverse_input_channels value="False"/>
			<save_params_from_nd value="False"/>
			<scale_values value="()"/>
			<silent value="False"/>
			<steps value="False"/>
			<version value="False"/>
			<unset unset_cli_parameters="batch, counts, disable_fusing, disable_gfusing, finegrain_fusing, generate_deprecated_IR_V2, input, input_checkpoint, input_meta_graph, input_proto, input_shape, input_symbol, mean_file, mean_file_offsets, model_name, nd_prefix_name, output, placeholder_shapes, pretrained_model_name, saved_model_dir, saved_model_tags, scale, tensorboard_logdir, tensorflow_custom_layer_libraries, tensorflow_custom_operations_config_update, tensorflow_object_detection_api_pipeline_config, tensorflow_operation_patterns, tensorflow_subgraph_patterns, tensorflow_use_custom_operations_config"/>
		</cli_parameters>
	</meta_data>
</net>
